projects/baler_100_epochs/output/compressed_output/model.pt (torch, 499070 bytes, 16 tensors)

en1.weight f8 [200, 24]
-0.19762888644712007 0.04297613877950486 -0.11619841218495157 -0.01830316294498084 -0.005360691429189844 0.007869081111080986 0.281218373658731 0.49977872795988076
-0.1286787077851945 0.021530696646966975 0.2302184057813846 0.032021534522178055 0.10511384570188707 -0.12631343826932406 0.16214497410292175 0.056960752055649884
0.07103998612745564 -0.07853717275231092 0.27643925622411186 0.10160107296948394 -0.11102456154421868 0.4195550862980149 0.17676647624491806 0.16945889584278814
-0.1601377008271536 -0.003141400476316991 -0.021823908257039056 0.1816625466074507 -0.07157930973954552 0.25681881497135306 -0.26640572298560145 -0.14726846923703096
-0.4395214243459449 -0.4971459010843034 -0.0013673246599427966 -0.04120944443022826 0.001766022797843113 -0.003497791426208383 -0.0981564495969713 -0.01029714429017594
-0.05647624799861183 0.22064161823547723 0.17746391930596223 -0.7043410264673398 -0.42637644455933865 0.10305954825283538 -0.09118769063641238 0.1490991343066095
0.19011189624734592 -0.13807981738640238 0.017935828718539607 0.2319095270855208 0.05668444075928704 0.07137504563683313 0.46217208062781745 -0.014562408538054085
-0.04365638516224058 0.4808323622837628 -0.05833383044954756 0.0276110348129328 -0.20341806826174338 0.0858204481365521 -0.09056514834134144 -0.046390084668926114
-0.052134954926783675 0.17419582055052 -0.025451558488789147 0.0759523510687761 0.23545888294513045 -0.17652115475952487 0.17185449015995055 -0.10266032024805594
-0.06370758461729789 0.07722041373108432 0.09032196930033606 0.18231041965362701 0.11239188653467831 0.09249282201993095 0.03974834134341584 -0.127487462359887
0.17744804613594078 0.03820850638386676 -0.05487924545097095 0.3049090977443451 -0.06382476222236072 -0.08133954253895304 -0.03329177012086158 -0.02397994503509315
-0.02707776120193332 0.05367398207506156 -0.0739212946956647 -0.005448062520391662 -0.10963438862319617 0.3027984824194176 -0.043717565731174045 0.05927056741878915
-0.12155973113751074 -0.08993261522694264 -0.0019762120839897507 0.15140929911680692 0.11139395083630409 -0.014360314676166072 -0.050980749644367315 0.2578061543462693
-0.23453119912527481 0.049654462674580416 0.06875975433207912 0.11891601684137547 -0.052537912675234284 -0.08776777308917391 -0.004114238776019764 0.07812210291270018
0.1396120059481534 0.15527658208727224 -0.03831392997218066 -0.34132038310285445 -0.07726128550092037 0.13738677754277953 -0.048615754283459184 0.08048482793564907
-0.0077417034475992285 -0.10469753671593707 0.07879392489796021 -0.03436954260683067 0.0875842873816759 0.16455553089258831 -0.2237227873971229 0.04951406215246759
0.3401015074354713 0.013428698423572482 0.006390191631311948 0.07227593713646625 0.08673752078302643 0.12592680550271598 -0.08270640276387872 0.34125959903780484
0.021593145288034337 -0.11350377303386137 0.11165126761824191 0.20556290762075563 -0.03645674073037358 -0.13172229593802562 -0.1673129472624337 0.1883018209689279
-0.13472496937271308 -0.18628897595861152 0.11430127692367129 1.7829003566471202e-06 -0.05954674982232577 0.007556975101410953 0.24639521210299462 -0.062270243623237374
0.0058996519108633115 0.22312018605453182 -0.07563908710436044 -0.03284055174352747 0.01724138880066998 -0.0022790122649114413 -0.10863179832304143 -0.021608293923985146
-0.0012893867338139866 0.06041913091461141 0.07934990961412566 0.1866719928387903 -0.02885436860126715 0.23800343917508743 0.051776695761389546 0.15334754297164335
-0.01638203229828057 -0.4294001696960468 0.38777389687957037 0.039155632083180264 -0.06092637380317474 -0.26494121472044113 -0.2015681428366861 -0.01131072530300187
-0.20745001433178273 -0.5919126204955918 -0.06114327066087564 0.173029497764475 -0.14992140844886168 -0.05439542095041778 -0.2519953240149604 -0.42478075611476357
-0.05327215116935243 0.024514900341583438 -0.08091724648116928 -0.2060472701873124 -0.46445239640569047 0.06827626510890332 -0.13359705323125987 -0.028274528683126413
-0.2707816306861298 0.23869193170410416 0.020355247119923977 0.22288435415770486 -0.04792656477846234 0.13644569395267678 0.014115332160952126 0.2174085931848398
0.02051835360304286 0.1430839353114117 0.21901518286549815 0.17376176594052364 -0.14602873571762048 0.1068795123786738 0.09269869157764452 0.11462404280999128
0.05130215135052536 0.05076630125819965 0.2346789729924001 -0.064988681986544 -0.11480893390899592 0.09702341579207896 -0.049883352160422036 0.10494419462422189
0.660641306290138 0.0250725833126022 -0.04499126617156531 0.0452557213282666 0.18068625123311058 0.2535400300274077 0.12259722280665442 -0.1588371731293246
-0.0026682445397607506 -0.06261126008517229 -0.003280743318682201 0.5038207397730078 -0.1866376093442029 -0.15335198324798138 0.10512898423822382 0.06627171596186873
-0.027633733197480127 -0.06517908723240858 -0.18033135748965118 -0.15803944620258112 -0.16424978538936982 0.4057933377823139 -0.18733764207682185 -0.10925502671692512
-0.1081747362338047 0.014445361409956463 -0.13380386872458672 0.02412675525675081 0.03616613659513201 0.016067127208716465 0.12367283935192841 0.13535658832159828
0.027563776041324976 0.04245563485914103 -0.4301107716399033 -0.2205334608226245 -0.24171542442428764 -0.10440891086507272 0.0396882904569976 0.01708176505739966
00000000: 0084 0442 e74b c9bf 1af6 21ed f700 a63f
00000010: 7376 2edc 2dbf bdbf 4c57 0c79 10be 92bf
00000020: 9803 f5a5 17f5 75bf 455e 2c30 aa1d 803f
00000030: f781 7959 7bff d13f 2ebf f4ea 5ffc df3f
00000040: 7781 d03c 8b78 c0bf ead4 d597 240c 963f
00000050: cb57 e2f5 cb77 cd3f 12bb 1467 2065 a03f
00000060: 277a a5b1 bde8 ba3f 70be 34eb 092b c0bf
00000070: e9cc 7da0 2ac1 c43f 011b 78ae f529 ad3f
00000080: e72e 2031 ad2f b23f 7cd1 7d1c 031b b4bf
00000090: 3d0a 3447 2eb1 d13f 2777 a425 8702 ba3f
000000a0: bf99 e20c 1b6c bcbf c14e a193 fdd9 da3f
000000b0: 8523 40ad 48a0 c63f 239d d43f d4b0 c53f
000000c0: 8762 f465 647f c4bf 66c5 e689 febb 69bf
000000d0: 3f86 f0b0 0159 96bf 5325 4be4 b740 c73f
000000e0: 68cf 668a 0553 b2bf f829 d32e b86f d03f
000000f0: 692f ec96 ca0c d1bf a071 8d75 b1d9 c2bf
00000100: 4c42 dd77 1e21 dcbf 99d7 9f0a 3dd1 dfbf
00000110: 7a53 a3ac f966 56bf 2573 3a80 6719 a5bf
00000120: 2e58 498a 3cef 5c3f 94d7 1479 66a7 6cbf
00000130: 2d14 e9f4 c720 b9bf 4c7c bf4f ab16 85bf
00000140: ff44 4f6c 74ea acbf 349c 3a0b fc3d cc3f
00000150: bacd d140 23b7 c63f c010 3d31 f689 e6bf
00000160: 0ab2 4a6d c049 dbbf 9155 494d 1c62 ba3f
00000170: aec6 1495 1358 b7bf f1b9 da30 ae15 c33f
00000180: 2c40 7b2c 9655 c83f 9fc4 f475 99ac c1bf
00000190: 0155 1717 c55d 923f 1b48 3b1d 36af cd3f
000001a0: c2a1 8136 be05 ad3f 9dbd c28e a245 b23f
000001b0: 96ed da34 3a94 dd3f a71e 6063 e5d2 8dbf
000001c0: 311a 1135 215a a6bf f67f b719 f5c5 de3f
000001d0: 83fb 0f8c eedd adbf 7dfd 1e2e 1146 9c3f
000001e0: 6dc2 4c6f 9a09 cabf 1016 1332 54f8 b53f
000001f0: 3090 480e 472f b7bf adfe 05f1 70c0 a7bf
00000200: 1227 c7cc 6eb1 aabf 9da3 2e74 0c4c c63f
00000210: 4cc7 5d2d f90f 9abf 520b e5ff 9c71 b33f
00000220: d6a8 e644 8423 ce3f af45 5fc5 3e98 c6bf
00000230: df30 74f3 53ff c53f 08f2 0f5e f247 babf
00000240: 123e 70e8 234f b0bf 2e00 8f8f b7c4 b33f
00000250: ae58 4130 571f b73f 4bf1 10a5 f255 c73f
00000260: 458f 00f5 b6c5 bc3f eaba b00d 9cad b73f
00000270: 5bca 4704 e559 a43f ea2c be58 8251 c0bf
00000280: ac4c 7219 9eb6 c63f b207 b2ba 1090 a33f
00000290: d8d4 e1e8 2119 acbf 2b26 c472 a183 d33f
000002a0: 2486 6bd2 d156 b0bf 388f 1313 abd2 b4bf
000002b0: 0e44 ca6f 9e0b a1bf 9f0e bede 328e 98bf
000002c0: 8bab 3ecb 45ba 9bbf 3e24 51fb 277b ab3f
000002d0: c323 3287 81ec b2bf 0e57 a025 b550 76bf
000002e0: 2751 a7d1 ff10 bcbf e344 d1e2 0c61 d33f
000002f0: 93f9 2616 2662 a6bf 16ae 5b39 b658 ae3f
00000300: 7104 bfdd 891e bfbf 1154 3ee9 d205 b7bf
00000310: a08a a9c8 6a30 60bf fd2b 0242 6161 c33f
00000320: a76c d05f 5084 bc3f 4bbc 27cf f068 8dbf
00000330: 2670 e518 261a aabf fcfb 6762 e57f d03f
00000340: 7a3e 114b 1e05 cebf 5257 934a 4f6c a93f
00000350: 6624 2340 3d9a b13f 23e6 4db3 4771 be3f
00000360: 1900 7bd1 3fe6 aabf 5e8d 0fe3 f277 b6bf
00000370: dbe3 da8f 17da 70bf c1d3 1a65 cfff b33f
00000380: 3990 d663 cede c13f 9c22 f360 1ae0 c33f
00000390: 836a 6c28 e29d a3bf 09a3 b872 31d8 d5bf
000003a0: e82e 7946 65c7 b3bf f97a 39d2 e395 c13f
000003b0: 4c87 6f05 2ae4 a8bf facb ce57 a79a b43f
000003c0: c5dc f6b1 c3b5 7fbf 70ad 2a30 75cd babf
000003d0: 876a 8fb2 d62b b43f 201b f37a e298 a1bf
000003e0: a0a0 f281 ec6b b63f 77a0 c7d7 2710 c53f
000003f0: 1bcc 9ec3 f2a2 ccbf 941f 463b e859 a93f
00000400: 925c f01c 39c4 d53f e6eb 7464 8180 8b3f
00000410: 8d82 2501 9a2c 7a3f adf3 4902 ad80 b23f
00000420: 6866 191f 6e34 b63f 2576 a99b 5e1e c03f
00000430: e668 0a2f 3f2c b5bf 7b0f 5480 32d7 d53f
00000440: 1bcd 5173 831c 963f b72d 2751 950e bdbf
00000450: dd2f fa6e 2d95 bc3f 763b c0a6 e24f ca3f
00000460: a8b8 4f3a 75aa a2bf f39a 9ab4 46dc c0bf
00000470: 5f42 58ba 826a c5bf 8c5d 6b29 461a c83f
00000480: 2188 b4f4 aa3e c1bf 117d ac31 51d8 c7bf
00000490: 9e38 4736 d942 bd3f e95a 5dac 7fe9 bd3e
000004a0: d0d4 235e e97c aebf 7c0a ad0e 10f4 7e3f
000004b0: c7c9 efd8 e089 cf3f 3b63 c0a7 e2e1 afbf
000004c0: a533 3dc0 3b2a 783f 4a40 17c7 338f cc3f
000004d0: 239b 694d 155d b3bf fa2c 710f 7ad0 a0bf
000004e0: cb5f 2504 baa7 913f eaa7 a364 6fab 62bf
000004f0: c466 1a25 4bcf bbbf ea4a e70e 7c20 96bf
00000500: 86d4 a176 1420 55bf a578 a99e 41ef ae3f
00000510: aeb4 bb92 4650 b43f 1f2f 292c dee4 c73f
00000520: 6be9 f4e5 ff8b 9dbf e2d7 cb8d e576 ce3f
00000530: b0ef fa9d 7982 aa3f d119 fe6c e4a0 c33f
00000540: f43e da93 73c6 90bf a072 6fd9 4a7b dbbf
00000550: 59c6 559b 49d1 d83f 5cc0 80fe 340c a43f
00000560: aaa2 e5dd bd31 afbf 458e 25ff cbf4 d0bf
00000570: 3313 b322 fccc c9bf a2d8 29da 132a 87bf
00000580: e60b 8ed9 b88d cabf 82c8 63bc f2f0 e2bf
00000590: 9dc6 b7b7 2b4e afbf 0d24 12a1 d425 c63f
000005a0: 0b0a 21ed 9f30 c3bf 5982 1174 b7d9 abbf
000005b0: 4ce8 d8fe b020 d0bf 7bea de9f 9b2f dbbf
000005c0: 0bb0 1ec6 7c46 abbf 015d ed1c 6f1a 993f
000005d0: 89a9 511f feb6 b4bf 003a 71c7 c15f cabf
000005e0: 061f 478b 96b9 ddbf 235b bca5 8d7a b13f
000005f0: 9230 3c4f b519 c1bf 21ef 0380 fff3 9cbf
00000600: f6e2 097a 7c54 d1bf 1b7d 3e0c 758d ce3f
00000610: ff70 ba82 01d8 943f cade f279 7987 cc3f
00000620: de8e aaa8 d489 a8bf 7f77 9a70 0d77 c13f
00000630: 6319 07d0 7fe8 8c3f a293 cc76 0bd4 cb3f
00000640: f975 c566 c302 953f 4f6c 5f0b 9350 c23f
00000650: 140d de83 b008 cc3f ad3f 0157 d33d c63f
00000660: e279 17d2 11b1 c2bf 7a61 47aa 745c bb3f
00000670: c63d b5f8 19bb b73f 8847 3453 0058 bd3f
00000680: 5aa7 878c 4644 aa3f c923 4967 0afe a93f
00000690: 3ed6 07e9 f509 ce3f b40a be27 19a3 b0bf
000006a0: df81 6d48 1e64 bdbf b8ef c5cd 86d6 b83f
000006b0: 7da8 498c 4f8a a9bf 68eb d06b 9fdd ba3f
000006c0: 3ee4 9c3c f923 e53f bf5a 6a95 a0ac 993f
000006d0: 8b00 a061 1809 a7bf 8fa3 1f06 c22b a73f
000006e0: c507 f121 ba20 c73f e773 4cf6 ff39 d03f
000006f0: 28f6 8816 8862 bf3f 8a61 fdc7 c654 c4bf
00000700: c1ef 26e1 b6db 65bf b25a 6da2 4a07 b0bf
00000710: cf76 54a8 37e0 6abf 1be4 0bac 4c1f e03f
00000720: 0322 2bbe bde3 c7bf 3cd5 69ac 09a1 c3bf
00000730: f934 2aad bbe9 ba3f 36be b4e4 2ef7 b03f
00000740: cdf4 6571 044c 9cbf 05dc 0ba0 93af b0bf
00000750: 4640 6e11 1915 c7bf 3f82 75f6 a23a c4bf
00000760: 8fa9 4f10 2306 c5bf 0b6c ad9e 84f8 d93f
00000770: 52cd 030b aefa c7bf 993c ac2e 23f8 bbbf
00000780: 89ab 60ea 56b1 bbbf 0964 ad96 8795 8d3f
00000790: 5c0c 2034 7c20 c1bf 8736 2523 afb4 983f
000007a0: 5f2a cc2b 5e84 a23f 75c2 9ba7 e673 903f
000007b0: c084 6bf0 05a9 bf3f ddd7 115c 5d53 c13f
000007c0: be66 9bb2 ad39 9c3f ac79 80b6 bebc a53f
000007d0: 0472 7654 ef86 dbbf 4d14 f4c0 703a ccbf
000007e0: 59a8 6bf1 87f0 cebf 4d93 93d9 8aba babf
000007f0: 4d0a 180b 0652 a43f de31 1ed9 e17d 913f

en1.bias f8 [200]
0.07996110798474201 0.06475356463749994 0.09694861034627439 -0.08127533952156826 0.03744397911243534 -0.008605267865386828 0.14112198814700389 -0.09319731641992626
-0.04889928247463335 0.04526687306539921 0.12733882307387473 -0.04012883326644264 0.08881023388238322 0.10213661483163956 0.10312094929479595 0.18075326062656466
-0.12750585381475707 -0.07872768214371377 0.03024738285325561 0.13219694987805214 -0.027101134524364908 0.05737153581934731 8.67702776438152e-05 0.13743717419994553
0.04687521706338102 0.05236589312035264 0.11797951331358077 0.18371010395985377 0.12004651933258936 0.21522279323405913 -0.14205255928279198 -0.08067001716381318
-0.019162970853594374 -0.016598946473776747 -0.036175941329113996 0.14717360888713724 0.20126378533343614 -0.02772441851884192 0.05041469551187278 -0.04280304657478645
0.029527127531087164 0.018481448821889263 0.03872033994718233 -0.08350435065744864 -0.17488414542467778 0.0013362382534994335 0.02946587480393464 -0.05335694901468338
-0.03694093672042086 0.14341015898127762 0.15296569913998082 0.044448312220702925 -0.03192846159546189 0.0032344069539790876 -0.07387671817938848 -0.07451626499906826
0.11559645751540326 -0.043848472247795214 0.03989272478120395 0.029762867731187626 0.049816175880689595 -0.003194738151643681 0.059504939342302436 0.010408866297110967
-0.0027724395479710455 -0.004113862503838529 -0.05989983102452213 -0.09532134938480179 0.006376772653329991 0.0712335666065658 0.06469340069671176 -0.01332789455565422
0.08657843788584263 -0.008207021704306596 0.1815472803884049 -0.11184475840050091 -0.14662336213024793 -0.13551092114289295 0.040247686346270684 -0.03439977380083939
0.015623718714212148 0.021362752474648864 0.1276789878505653 -0.04662903928599982 0.02938858948044368 -0.15106313220296222 0.08611773615837136 0.15059392390529658
-0.06883212436668469 0.09148330807867594 0.17210887215100962 0.07097898590279583 0.0031413572204418453 -0.011997446337066054 -0.06501163053937492 0.09526781903818947
-0.028547456578692804 0.028387897376011814 0.011098171880111717 -0.14374691760471853 0.0008370099768547399 0.014467205382189175 0.020107728451602018 -0.0356983871920425
0.043430136857100475 -0.07859262969071791 -0.1586893754030494 0.06020385852897458 -0.0009916444292975555 0.10741085329945771 -0.02849734364475197 0.18177582156346067
-0.13825792649489088 0.03623354837069576 0.07994832885021806 0.00982114901726794 -0.0381304764118604 -0.13866647637334426 -0.07395328405158956 0.04925828290609773
0.04328064658908818 0.12223523654418045 -0.002065190962147493 0.12229832513437255 0.14647783413039644 -0.008891703509302495 0.004632344820977192 -0.01067379690399112
-0.03159692161063399 0.00917828354695519 0.0641747546002845 -0.031113936621464514 0.17141525904686897 -0.019464755422825424 0.11612525791034412 0.006583749409134016
-0.03781098523699661 0.03897418137601628 0.05953771784858186 0.1133839436821603 0.06923556668894093 -0.04901233261166658 0.02652114386991052 0.11305010702300476
0.19028075595757282 -0.06363887932113574 0.04685691901706352 0.038641377402813426 -0.09583955891390089 0.062979698001571 -0.017934112452890748 -0.12238897957056291
-0.059049233796980904 0.09222703069366478 -0.11489056869655312 0.01171559650948006 -0.04145192303900773 0.04848543095275703 0.03744530704126047 0.0032144185832538824
0.028768102783241368 -0.05649115454310689 0.0032120144473618615 -0.08537223581395509 0.11884706920623374 -0.04828176675806534 -0.14310091643412018 -0.09051543994258518
-0.16794543518188776 -0.051730551435481754 0.09659728385865288 0.11625799067611405 -0.04766149752012859 0.031563595364227155 0.0983284740741797 0.08261795214637957
0.016561998368829964 -0.04655740875613381 -0.1710365140124469 0.057413208567553865 0.0311355530075558 -0.026688641878278956 -0.01716961985908202 0.015700356689900982
0.04963391373135098 0.007307097873932361 0.04527031652657871 -0.03916837764334345 -0.03739871183355614 -0.08594163094919385 0.032274954973328246 0.015032104227193576
-0.06260424185827916 -0.08536599811406148 0.19861035993528983 0.0829549318763727 -0.13200928589340255 0.022014106577934036 0.035362717972092804 -0.02925845333337477
00000000: 8213 bfc7 5478 b43f 41e0 6a8a b093 b03f
00000010: 0c74 d4c6 9fd1 b83f 1668 37ed 75ce b4bf
00000020: 0ea6 7073 db2b a33f b6f5 7080 a39f 81bf
00000030: b23f eb09 4910 c23f 623a 1982 c7db b7bf
00000040: 6c86 0da6 5309 a9bf eeee d036 382d a73f
00000050: 9e84 4e78 a34c c03f 7b13 0335 c48b a4bf
00000060: bb2f 137a 44bc b63f fd10 6d0c a025 ba3f
00000070: 6eed c070 2266 ba3f b6aa 843f ec22 c73f
00000080: 876a 17a0 1c52 c0bf c3dd 1854 7f27 b4bf
00000090: acc9 9380 2bf9 9e3f 3eb8 2d64 d4eb c03f
000000a0: dfd7 dd59 66c0 9bbf b37a 214c cd5f ad3f
000000b0: 52e1 db04 0ebf 163f 05c2 3894 8a97 c13f
000000c0: 3c6c 8f48 0700 a83f ec67 c1cc b3cf aa3f
000000d0: ada2 47c7 e733 be3f 04e6 390c d083 c73f
000000e0: e837 8862 5ebb be3f 90a3 25a5 6b8c cb3f
000000f0: 7a62 373c c72e c2bf 8980 7c4d caa6 b4bf
00000100: d309 7134 759f 93bf f1fe 0271 50ff 90bf
00000110: d734 d229 a785 a2bf 1395 80b6 95d6 c23f
00000120: b429 f0ff 02c3 c93f 0a2e 5b3b ca63 9cbf
00000130: 692e ec78 f4cf a93f 486e 6aea 47ea a5bf
00000140: 5105 5dfc 5b3c 9e3f d841 1709 cdec 923f
00000150: a9bb 8603 27d3 a33f cfbf 2587 8a60 b5bf
00000160: 140d 988a 9a62 c6bf 01e9 4ce6 96e4 553f
00000170: 6f12 8662 4d2c 9e3f 5497 101e 9a51 abbf
00000180: 8f14 3226 ece9 a2bf 4c8f 5e9b 435b c23f
00000190: a8a5 9b49 6194 c33f a55c b3de edc1 a63f
000001a0: 6c6b ba64 ed58 a0bf 8581 db02 0b7f 6a3f
000001b0: 122b 84a8 95e9 b2bf cfe9 3079 7f13 b3bf
000001c0: 78e6 8fbc ba97 bd3f 0254 9194 4e73 a6bf
000001d0: fc33 91b8 d16c a43f 7d99 293e 287a 9e3f
000001e0: 184e 707c 8181 a93f 94d1 2dfc d92b 6abf
000001f0: 27ef d970 6e77 ae3f 221d ad62 3e51 853f
00000200: 419b 0926 3ab6 66bf a8ac a08e b2d9 70bf
00000210: 318f 92ce 30ab aebf 63e3 37de fa66 b8bf
00000220: 5153 00e0 871e 7a3f 12e0 f3ee 5c3c b23f
00000230: 1468 4228 bf8f b03f ceb6 edb9 a74b 8bbf
00000240: 882a 4227 012a b63f 615c 8ace d7ce 80bf
00000250: 9a14 f9f7 f03c c73f f125 8fab dba1 bcbf
00000260: cfe8 96e8 8dc4 c2bf ab9f 47ff 6b58 c1bf
00000270: a89c 3141 589b a43f 34c6 edde d89c a1bf
00000280: a305 5b07 54ff 8f3f 31b5 ec0c 1ee0 953f
00000290: 002f 9afa c857 c03f 20f6 8ded c2df a7bf
000002a0: a9bb c6da 0a18 9e3f c5b5 3866 0956 c3bf
000002b0: ffdf 67dc cf0b b63f d424 1365 a946 c33f
000002c0: 8db1 116b fb9e b1bf 14eb 5338 736b b73f
000002d0: 5ab9 9edc a907 c63f 70df 27c7 ad2b b23f
000002e0: 06f7 db50 e7bb 693f 1ac8 39fd 1d92 88bf
000002f0: 54b8 062b 9aa4 b0bf 5f59 21c7 7863 b83f
00000300: 15d0 8e61 8b3b 9dbf ac25 548b b711 9d3f
00000310: 6cea 296a a3ba 863f 5eac 018b 4c66 c2bf
00000320: 27e3 0e3d 596d 4b3f cd1f d96f fba0 8d3f
00000330: 7ecb 62d0 1e97 943f 4900 051b 0f47 a2bf
00000340: eb91 ec92 793c a63f 0970 3a86 a51e b4bf
00000350: f014 caf6 ee4f c4bf 7f2d f346 0ad3 ae3f
00000360: ff71 2819 423f 50bf 8c18 2816 477f bb3f
00000370: 7c88 e85b 682e 9dbf bac7 681c 6e44 c73f
00000380: 80aa 5a8c 6fb2 c1bf 0954 8a22 348d a23f
00000390: ff12 c861 7e77 b43f 01db b44e 1c1d 843f
000003a0: 40f5 567a d685 a3bf e79b 89b6 d2bf c1bf
000003b0: b3f1 6e38 9aee b2bf 8711 47b4 6138 a93f
000003c0: 75bb 4c83 e128 a63f b846 60f7 ce4a bf3f
000003d0: bbb0 8ef4 04eb 60bf c0c5 ce6a f14e bf3f
000003e0: 56e8 9621 c9bf c23f d3b7 393e d035 82bf
000003f0: 8784 2898 5df9 723f 62a9 03c5 24dc 85bf
00000400: 40a3 f1c1 782d a0bf 1338 575d 10cc 823f
00000410: 25af 3cb8 c16d b03f 34be f4f0 54dc 9fbf
00000420: 4122 d269 eff0 c53f 9bd9 dc9f 91ee 93bf
00000430: 08e9 f688 62ba bd3f ad4c 5bc6 8ff7 7a3f
00000440: 287d 0b22 f65b a3bf 21f6 cb84 6cf4 a33f
00000450: 6086 134e ba7b ae3f 67a2 01ea ba06 bd3f
00000460: b826 a60e 6cb9 b13f 8de7 55fb 2418 a9bf
00000470: 158c 4bd6 5b28 9b3f 6f1d 7910 daf0 bc3f
00000480: eaad f2ab 1e5b c83f ee38 7039 a34a b0bf
00000490: 190a 8a4d a1fd a73f 2859 6f78 cdc8 a33f
000004a0: ccc1 32fb f088 b8bf 588c 3aff 6f1f b03f
000004b0: d62e dfe9 515d 92bf 2679 a558 e254 bfbf
000004c0: 9016 0680 b33b aebf 40f0 a2d0 309c b73f
000004d0: 50a8 2be3 7769 bdbf be0a e4be 58fe 873f
000004e0: 3621 9ebb 2f39 a5bf cf92 8c18 15d3 a83f
000004f0: 4f04 4302 082c a33f f775 1ad6 1f55 6a3f
00000500: 7dea 7cb2 6275 9d3f 2946 8d9a 68ec acbf
00000510: 0faf 2e20 1550 6a3f a4ad ce70 f4da b5bf
00000520: 5d5a 77f3 c26c be3f 891f 7042 63b8 a8bf
00000530: c15b 0e7e 2151 c2bf f221 5616 052c b7bf
00000540: 6c31 cf6b 3c7f c5bf 3d27 3d45 6d7c aabf
00000550: f22a 0e7f 99ba b83f dd42 da6b 15c3 bd3f
00000560: 5e32 417a 1667 a8bf d1c4 aa83 1a29 a03f
00000570: 1308 6a0c 0e2c b93f 48fc 873a 7326 b53f
00000580: 59f1 66e5 a0f5 903f 83fa fc67 5fd6 a7bf
00000590: a47a 0d45 86e4 c5bf 85e8 4f9a 4365 ad3f
000005a0: a82c a497 ffe1 9f3f 6ede 2a70 4454 9bbf
000005b0: b737 1eaf e994 91bf 7c1b 131a c113 903f
000005c0: 744d 7fc8 9d69 a93f 86f9 5a26 0cee 7d3f
000005d0: 8925 ecc1 ab2d a73f 8ef4 07aa e00d a4bf
000005e0: 80ad 7988 ec25 a3bf 22ac 4a4e 4500 b6bf
000005f0: 143e 2ec8 5786 a03f b9eb 5de0 26c9 8e3f
00000600: 6747 5fe3 d406 b0bf 5c1d 17ca 8bda b5bf
00000610: 5bd0 4874 106c c93f 1070 73cf 883c b53f
00000620: e819 d726 aee5 c0bf 8727 36af dd8a 963f
00000630: a328 60ea 0f1b a23f ea25 cb90 edf5 9dbf

en2.weight f8 [100, 200]
0.09257531693806642 0.0055287416040307145 0.07278135679489178 -0.08186950570686727 0.031001603364685708 0.002378134910280205 -0.005150936129250606 -0.4592490744052496
0.011538430949449082 0.02184999101096561 0.0656557894800429 -0.04715134782610782 0.19484300452907782 0.03801081372706929 0.1051840067285238 0.08417996640383761
-0.10655761425276186 0.00842814621768268 -0.00984310555569728 -0.01102865976070118 -0.21210544801736028 0.11858268181491265 -0.06716678748821776 0.20001131488221094
0.16160057096157535 -0.04260696220742752 0.09138694886730721 0.23038435089419154 0.03546426070834018 -0.06275068125608116 -0.1994603252601015 -0.16201763168760538
0.06340793749578505 -0.00699800853417953 -0.00026243159178751687 0.1415752426093112 0.1335835736844467 -0.09502919326938224 0.09521912018404666 -0.03293244705441825
-0.007135615306411508 -0.23331829419949224 0.024438884930224627 -0.07711364851027669 -0.18184340242724642 0.030918628905367753 -0.04228961061714086 -0.057117325662178677
0.12225034508989528 0.018993463118143247 0.15594744534991015 -0.04526145971809612 -0.05080855544548406 -0.09349495743215805 -0.06810892378923844 -0.0999671679625333
-0.05043918651628549 0.22803811715853955 0.06518637317861267 0.20476906800234213 0.054053006198795286 0.10676057255426932 0.15004962851931203 0.07064456613302861
0.02875532586673238 0.16865358817092424 0.08110534913231394 -0.012930064226701118 -0.124249488483154 0.08693813694408752 -0.33250576571965085 0.20855730292590444
0.011884413193688567 0.12115037031592614 0.14662752780596758 -0.04078754305503163 0.03392858062822493 0.007076833584809231 0.04651694086510729 0.019066373943792278
0.010445234903633678 -0.07848521481732827 0.08135828239114085 -0.12153275285297793 0.06754035367293382 0.3921530138997576 -0.039591276213051876 -0.07064938519339516
0.11918932930244176 0.13398244285400562 0.11577943728303274 -0.03364087200856639 0.07335657753299019 -0.013345732084835287 -0.024066491580390266 0.06845253963580405
-0.1448973357640839 0.054969361861273186 0.003959601969642997 -0.09479474855126492 0.22308393515755368 -0.011414418633371982 -0.05673325848093329 0.026758244422217446
0.0002560741884076671 -0.15760472894511365 -0.014584987373390684 -0.08562608656353767 -0.056528323949699776 0.037875740438313335 0.04763896490631101 0.1141537797979139
-0.04297388663712256 0.1172170867039106 0.10948652713873584 0.11387040544656458 -0.08221058406698531 0.06843392857540727 -0.060958764348708484 0.027449936685898048
0.10296467874429162 0.03462330509709071 0.00043369939104823124 0.07311530265217643 0.1458940848407618 -0.11703328315867256 0.25956550303861053 0.07253530842487399
-0.03490629188748366 0.06007931495038119 0.018895739020793466 -0.058533511496333 0.06975462880723121 -0.15933865763462876 0.2302454492130321 -0.0845877769120025
0.11213260304076694 0.026648198248004386 0.06419246886560752 0.06222388072814727 0.017524087625624678 0.0920941544894706 -0.008901267375573538 0.006545671531098317
0.08791120912109919 -0.12949047163848562 -0.024758519513305738 0.14194113593677557 -0.130226940151167 0.009940752897219466 -0.09686845962084936 -0.07557051711419947
-0.05510078628677426 -0.021093827811969307 -0.05073482244843287 0.0332062061354411 -0.0239988323845116 -0.20523032434816652 0.03309401106930441 0.002350118175014469
-0.073443142314648 0.06043248142282832 -0.05483816709098347 0.03003441127539944 0.035439207120700485 -0.18239385494335247 -0.1024565552118366 0.09588813715398098
-0.04799137834791321 -0.135166891457682 0.19010432993844714 0.039536024974076184 -0.05224580330426079 -0.16721078929840505 -0.087693970629278 0.04988597484660022
0.02681621988364718 0.016771262821168538 -0.16960343202928732 -0.0455564687980715 0.008933941607998565 0.04636167637418251 -0.012891660942075946 0.07422298831445759
-0.05774055656959143 0.0037341288011334666 0.2015649554876641 -0.02828167364693945 -0.31356497107427544 0.03797266365941535 -0.017908923494447296 0.020106710606040665
-0.09765542464316498 -0.016827959162988872 0.09351868309406337 -0.02493574070212133 -0.09287603948083097 0.3042834321882721 0.13422694396401091 -0.07537636315470805
-0.10810789797151368 0.05445344400083745 -0.031700405998503385 0.062159776883323026 0.008868775317204373 0.03757292194932923 -0.05497920068874429 0.13201680988824158
0.07573433518571995 0.0013936980399337268 -0.04332913984037583 -0.045958239879437125 0.004189985714724659 0.12738161974754905 0.009116635291912291 -0.008063861160573012
0.053403230924692874 -0.005351047958021602 -0.03986222154119453 0.02461351560668103 0.0697309806466173 0.018753864560480553 0.03637964150695688 0.021363746095429983
0.11494586172100461 -0.013847261534700617 -0.1745469350079932 0.007768159219821857 -0.03348779213243414 0.3892461427450927 0.35005265592582785 0.036392799653395834
0.011590092179933415 -0.003270961572254323 -0.005641041981445764 0.13888781329488675 0.07488511678437425 -0.0867789266398524 0.27988706052956247 -0.05583229765914432
-0.013336969412236662 -0.12545230583826958 0.04419860172630636 0.004113653998919425 -0.16893411422890586 -0.12652702043395958 0.007057966939190473 -0.012743707653357481
-0.026659840824680762 0.2746095494667357 0.1162176574558011 0.01421218264871119 -0.009962159419724942 -0.13342688427605062 0.006984293904597649 0.03409072534238793
00000000: d873 aa16 04b3 b73f 7c9c 0946 4ea5 763f
00000010: 1c4c 318b cca1 b23f 62f9 8c61 66f5 b4bf
00000020: 9eaf 4c62 e2be 9f3f 66bd 4875 4f7b 633f
00000030: 41ae 80e3 2519 75bf fd7b d23a 5664 ddbf
00000040: 8bad 99fc 75a1 873f 5a6e 3d13 d85f 963f
00000050: cf1e 9c5c d1ce b03f 7a3b c0b1 3824 a8bf
00000060: 3644 2796 9df0 c83f d347 b443 2776 a33f
00000070: b814 f6cc 56ed ba3f ffcf ae7a d18c b53f
00000080: 36fb 5a1c 5c47 bbbf e381 f7a2 c642 813f
00000090: 5d53 9f43 9f28 84bf e968 eda7 3196 86bf
000000a0: dfdc 4475 4526 cbbf ab5b 4444 6f5b be3f
000000b0: ada7 a3b3 d731 b1bf 01e1 1f84 f899 c93f
000000c0: 11bf a5d7 53af c43f ec8e 866a 94d0 a5bf
000000d0: 3593 aa94 2265 b73f 15e5 4c02 3c7d cd3f
000000e0: 5f99 d61f 5f28 a23f 3eed cbbb 6d10 b0bf
000000f0: 78bb eb7a ea87 c9bf 2fa0 bc66 febc c4bf
00000100: d4e8 d9a9 803b b03f 7bb2 a99c f1a9 7cbf
00000110: 1d88 aa1a df32 31bf ac12 7736 231f c23f
00000120: ebf5 203c 4419 c13f cbdb 414d d553 b8bf
00000130: b0f5 24bf 4760 b83f 94e6 268e 85dc a0bf
00000140: 13c6 0b26 3c3a 7dbf 089a 92b5 5fdd cdbf
00000150: 84a5 1ace 8106 993f d847 6d56 b8bd b3bf
00000160: d18d 3505 a546 c7bf 375f f10f 22a9 9f3f
00000170: de54 1fdd fba6 a5bf 6511 826b 7b3e adbf
00000180: eff7 1572 cc4b bf3f 4c88 b8bb 0573 933f
00000190: 2118 d6fc 15f6 c33f cd52 8492 822c a7bf
000001a0: 669f fd37 9403 aabf 7614 8318 49ef b7bf
000001b0: bc93 3d20 966f b1bf 4ca4 12c5 7297 b9bf
000001c0: c96f 0c41 2ad3 a9bf e2fa b75f 5a30 cd3f
000001d0: 226e f2dc 0db0 b03f feb6 2671 df35 ca3f
000001e0: b2a5 bfeb d5ac ab3f 4271 9f2f a954 bb3f
000001f0: f839 a283 d334 c33f a074 2e25 c315 b23f
00000200: 48d7 bb40 0972 9d3f bc09 c6d6 7096 c53f
00000210: b1cf 0df6 51c3 b43f de2f e9d7 137b 8abf
00000220: b172 9481 d0ce bfbf db34 f3e6 9341 b63f
00000230: 64d4 5f43 c647 d5bf 1751 b475 01b2 ca3f
00000240: 6b0a feef da56 883f a9ba 67ee b503 bf3f
00000250: e55a 4fda b0c4 c23f d0d7 02d7 1ae2 a4bf
00000260: 7456 6540 165f a13f dd55 e50c 99fc 7c3f
00000270: 1382 7387 11d1 a73f 5ce6 2ab2 2286 933f
00000280: f72c 7bb2 4f64 853f 4f26 dc66 9b17 b4bf
00000290: 58f1 207a e5d3 b43f e079 e53e c51c bfbf
000002a0: 847e 2f1a 534a b13f f58b 6ef4 0819 d93f
000002b0: da7b 15c9 4e45 a4bf 115d e3fe 1316 b2bf
000002c0: 81db 621f 3183 be3f 04e8 2531 5626 c13f
000002d0: 7f0e aea0 b8a3 bd3f c5e2 2b5a 6039 a1bf
000002e0: d85f 7325 7fc7 b23f 56ad c3d6 0155 8bbf
000002f0: 32a6 11e9 e2a4 98bf 345d 100b 1b86 b13f
00000300: cf2f 31f3 fe8b c2bf fcca f3b6 f124 ac3f
00000310: afcb 6f8f f137 703f c937 dcf8 7744 b8bf
00000320: f5e0 e1ae 038e cc3f 7490 dd55 7160 87bf
00000330: a6d0 8a43 240c adbf c966 c462 8366 9b3f
00000340: 8c3f ba43 36c8 303f 8fd1 414a 642c c4bf
00000350: d612 40de bbde 8dbf 6190 7959 97eb b5bf
00000360: 53c4 52cd 47f1 acbf 321a fdf4 7264 a33f
00000370: 4d67 9368 2264 a83f 2b63 f29e 2e39 bd3f
00000380: e37c 605b ac00 a6bf 2efa ec61 f001 be3f
00000390: 47da 691d 4f07 bc3f b910 6063 9c26 bd3f
000003a0: 1ee8 f3b9 c00b b5bf 750d 2bcd e284 b13f
000003b0: 2d86 90b6 fc35 afbf 8a70 5f11 d61b 9c3f
000003c0: a991 d9a7 e45b ba3f 1793 2456 25ba a13f
000003d0: 01ba 6ab3 446c 3c3f ed6d ba39 afb7 b23f
000003e0: f313 8949 a8ac c23f f8c2 b5ab e4f5 bdbf
000003f0: a71e aea0 b89c d03f a877 7d89 ac91 b23f
00000400: a6a9 29cc 3cdf a1bf 6d85 c149 b7c2 ae3f
00000410: e621 8394 6759 933f 7e8e 31bb 1af8 adbf
00000420: dcbf 7879 70db b13f 29bf c389 3565 c4bf
00000430: 5f1e 36d1 ae78 cd3f 1278 7a67 8ba7 b5bf
00000440: 1c1d e0e6 b8b4 bc3f ead7 e34f aa49 9b3f
00000450: 6362 6dea ea6e b03f c7e3 83f9 cedb af3f
00000460: ce28 fa9c d5f1 913f 4b5f af85 7b93 b73f
00000470: 1217 2be2 d33a 82bf 0bb8 8052 a2cf 7a3f
00000480: 017f 2058 5981 b63f 4d5b 6ace 2493 c0bf
00000490: 3898 6d1e 4c5a 99bf fb1b 678c 202b c23f
000004a0: ddf2 80c0 46ab c0bf e2b9 ba44 d15b 843f
000004b0: b2df 1512 5fcc b8bf 871b 8ce3 9658 b3bf
000004c0: 3dd1 2b96 2b36 acbf 9842 66d2 9e99 95bf
000004d0: d267 5e26 eaf9 a9bf 0d7d c062 6700 a13f
000004e0: 5c45 ef60 2693 98bf 4686 9cbd fc44 cabf
000004f0: 4de5 78be b2f1 a03f 966f 8216 8e40 633f
00000500: f15c 5b76 2bcd b2bf 8183 a796 01f1 ae3f
00000510: 45eb 748c bf13 acbf 49d5 ba38 57c1 9e3f
00000520: 91be 2877 1625 a23f 748d fc8c ae58 c7bf
00000530: bf49 e5c1 973a babf fc94 26fd 1f8c b83f
00000540: 4e0e fd70 5392 a8bf 6707 2811 264d c1bf
00000550: a3f1 f4b3 5655 c83f 0414 8edc 103e a43f
00000560: a410 1741 f6bf aabf 7c99 c9c3 2967 c5bf
00000570: fabc e8af 1c73 b6bf 568e fd8c a78a a93f
00000580: ae45 9c0d b675 9b3f d272 5165 7c2c 913f
00000590: 7d75 edb4 90b5 c5bf cec9 376f 2d53 a7bf
000005a0: 0eee 3e58 f54b 823f fc33 a1b7 b7bc a73f
000005b0: 0144 1971 f166 8abf 3e07 6c1b 4700 b33f
000005c0: 200c 3d94 2b90 adbf 3cb4 8e22 0997 6e3f
000005d0: 556b eb65 e1cc c93f 9f1a 8ffd def5 9cbf
000005e0: 4dda fbcf 7211 d4bf 054f 1e29 2771 a33f
000005f0: e461 dc82 b756 92bf c9ac ee81 da96 943f
00000600: 1690 1e27 f2ff b8bf a7c8 0d39 593b 91bf
00000610: b538 7425 d7f0 b73f 3cc2 443b c188 99bf
00000620: ddf4 2660 b9c6 b7bf 17a6 7d37 6179 d33f
00000630: 40a2 4837 592e c13f 6611 a486 dd4b b3bf
00000640: ca19 3a8e f5ac bbbf 77bd 4662 52e1 ab3f
00000650: 2926 111e 093b a0bf d859 ae01 68d3 af3f
00000660: 2231 8bdf ca29 823f 7b9d f90d c23c a33f
00000670: 9035 d6d9 3b26 acbf f301 7f44 ede5 c03f
00000680: 8a95 ce4c 5363 b33f 1702 21e0 97d5 563f
00000690: 160d 28ad 3c2f a6bf 9d1e 87a2 d687 a7bf
000006a0: ade1 d8b9 8429 713f 81af 7679 0a4e c03f
000006b0: 7434 6d13 beab 823f 0492 b61f c983 80bf
000006c0: 6c03 a514 ab57 ab3f be1b aaff faea 75bf
000006d0: 7b0d bb33 d268 a4bf a5f7 4712 4934 993f
000006e0: cf2d 65b9 e3d9 b13f 3ef0 d78b 3634 933f
000006f0: 6771 0635 5aa0 a23f 171e 33bb 60e0 953f
00000700: 0ffa e68c 176d bd3f c011 72fb f35b 8cbf
00000710: a3f9 bcd0 8d57 c6bf 66c0 c95c 81d1 7f3f
00000720: 6150 0cd8 4f25 a1bf eacb 4ba7 68e9 d83f
00000730: 6b14 4541 4367 d63f 5376 a4b8 13a2 a23f
00000740: eaa8 f6d6 8bbc 873f 9077 561f b4cb 6abf
00000750: 78f4 35ad 0f1b 77bf 180e f56b 13c7 c13f
00000760: 7fc8 8bc7 ab2b b33f 2e70 e6cb 2437 b6bf
00000770: 2413 e36a abe9 d13f 1f5c 0309 0d96 acbf
00000780: 5e60 a0bb 6950 8bbf 833e 6437 d20e c0bf
00000790: 4907 e3f9 32a1 a63f ac58 4796 7ad9 703f
000007a0: 4a5c e50f a29f c5bf bc7e 6993 0932 c0bf
000007b0: 7f93 e192 d0e8 7c3f a5c1 ce7c 5f19 8abf
000007c0: 4193 d5a1 b74c 9bbf 4b40 88ee 3393 d13f
000007d0: 9c8a fdbd 70c0 bd3f 92ac 72dd 461b 8d3f
000007e0: 5df7 3d67 0a67 84bf 5fb8 2fd4 2114 c1bf
000007f0: 0090 7e1e 909b 7c3f 078c e2ec 5674 a13f

en2.bias f8 [100]
-0.0017824504924460445 -0.019078456049742044 0.05149675928291953 0.05079677370089762 0.10296462462677772 -0.07172194663687854 -0.05396761236089829 0.050442414005663655
-0.012261324314053544 -0.06210052611404685 0.05296652262702388 -0.06717087017868813 -0.054162270972368684 0.04076910499565801 0.02577746828654153 -0.10394878139621826
-0.055603223440173564 0.0772376215621451 0.030061626022918776 0.03746060259008764 -0.029926533677963746 0.023147074331429405 -0.04505031933199621 -0.09645910181979969
-0.02216584790227118 0.051729482572136144 -0.0024020158583073488 0.02839404691722877 0.031925086427049484 -0.04805156235176476 0.05377095545717507 -0.007447966298838857
-0.021402488680126307 -0.06524449315582657 -0.06602047981846067 0.015497080420410585 0.0022250010502519813 -0.029960472516295265 0.054388157356874696 -0.01647955103867152
-0.006359025271165176 0.05774951609742788 -0.04706803543360431 -0.029621027840538564 0.03210560121344875 0.09245994370659476 0.016831431872001625 0.04372494166026749
-0.06690616231891404 -0.04288291787074003 -0.054417590048576034 0.008121676669860182 -0.07321524943613625 0.015691668706445776 0.006783597664227178 -0.01778930664926485
0.042471426418107534 0.06749170969628093 -0.011269693328683699 0.036949411611147405 0.0012944206521602272 -0.06031459393978747 -0.015593051994342905 0.032314738690246814
0.041017087332693714 -0.004088609733333189 -0.02432535602098655 -0.028808122130542017 -0.05032101561765815 -0.07084523200922904 0.05457949227222516 0.029430410123999273
-0.02869080875740997 0.02702822989467514 0.008817271886196854 -0.040783972861303655 0.04045544279210252 0.03918442463100479 0.017543168100570477 0.010000464792237396
0.01727649087678762 -0.003790391426496559 0.019404111957393205 -0.029761256465081647 -0.02631026093539957 -0.021488756116214452 -0.07000297852317125 -0.02983127058110737
0.003518796639777441 -0.05559105816852099 -0.061771451154243304 0.05111731484572334 -0.045123392576423074 -0.03206454085343257 0.09131397877864951 -0.05419775467150887
-0.010226132377645324 0.012408380184886918 -0.04542402955649434 -0.0370733585054385
00000000: 7449 98a4 2334 5dbf aad1 2a83 4d89 93bf
00000010: 11b4 f081 c85d aa3f 3e49 93e3 0802 aa3f
00000020: b2bb 6abf e35b ba3f 4dfa 3597 5e5c b2bf
00000030: 1d3b 4494 a4a1 abbf e4a2 f88c 96d3 a93f
00000040: 2ce0 7917 771c 89bf a5cd 72e1 a3cb afbf
00000050: f68b ee94 6d1e ab3f bd4c a932 1c32 b1bf
00000060: 6ebf 013d 28bb abbf 417e 4929 b0df a43f
00000070: ceb7 0e9d 6865 9a3f 9b49 8e28 639c babf
00000080: 8398 7494 0678 acbf 4157 a142 d8c5 b33f
00000090: 0d36 8892 79c8 9e3f 1e98 063e 092e a33f
000000a0: 08ce b7ad 0fa5 9ebf a99b 01dd ddb3 973f
000000b0: 7f1a 69e0 d510 a7bf eab2 b72f 8bb1 b8bf
000000c0: e53e 50df a4b2 96bf 9dcc c567 497c aa3f
000000d0: fff5 c971 64ad 63bf f870 a43b 5413 9d3f
000000e0: de96 4024 7c58 a03f 3e23 a5e1 369a a8bf
000000f0: 2694 53de dd87 ab3f b0b6 cd3a c281 7ebf
00000100: 8692 bcb3 88ea 95bf d72e 59f4 dcb3 b0bf
00000110: 8dbf afd9 b7e6 b0bf dc91 b6ec eebc 8f3f
00000120: 921b d257 2a3a 623f d651 8546 f5ad 9ebf
00000130: 9963 46ba c3d8 ab3f 8830 0ef3 03e0 90bf
00000140: 0e7b 2fd9 eb0b 7abf 551e ff35 5891 ad3f
00000150: 36a4 bf31 4d19 a8bf 2465 6587 f954 9ebf
00000160: 31da 7536 2570 a03f 53ea 6872 74ab b73f
00000170: 9a8a bd45 423c 913f 2b95 e694 1d63 a63f
00000180: b383 0f23 c320 b1bf 0caf 9ff3 bff4 a5bf
00000190: eee9 2b53 9fdc abbf fc62 7cfd 18a2 803f
000001a0: 528d e50d 3cbe b2bf 9ec8 a70f 7a11 903f
000001b0: e38c df21 1ec9 7b3f 2bc2 1b29 5c37 92bf
000001c0: 51e2 f596 d0be a53f 088b e5fd 2247 b13f
000001d0: d6db 42a2 9014 87bf 51e0 f384 08eb a23f
000001e0: e525 9297 3135 553f b4c4 e2f0 8de1 aebf
000001f0: bd5d e202 40ef 8fbf 50f0 b4b3 8e8b a03f
00000200: d099 5711 3100 a53f bcce 73d1 37bf 70bf
00000210: 6b76 4b02 bfe8 98bf 31b0 a359 e07f 9dbf
00000220: c539 c218 adc3 a9bf c4a2 8ec2 e922 b2bf
00000230: 03d8 aedc d7f1 ab3f 0037 f663 0123 9e3f
00000240: 6d47 3c95 1f61 9dbf c497 ddcd 49ad 9b3f
00000250: 4016 2133 ca0e 823f f2ce 470b a3e1 a4bf
00000260: aa7c 7967 93b6 a43f 0f01 9b1c fb0f a43f
00000270: cb6c 0a15 d6f6 913f 0dd6 d1a9 1f7b 843f
00000280: a0c6 38ad edb0 913f 742c e8e6 060d 6fbf
00000290: db48 0fe9 abde 933f de52 d21c bc79 9ebf
000002a0: 812b 11b9 13f1 9abf b8e1 0003 2601 96bf
000002b0: 2e2e 6117 b7eb b1bf e609 2dae 168c 9ebf
000002c0: 79dc a68f 73d3 6c3f 5652 9161 6e76 acbf
000002d0: 1e60 11f5 81a0 afbf 7f1e 0b77 0c2c aa3f
000002e0: f2f4 ccce 691a a7bf 9f4b a774 c36a a0bf
000002f0: b59d 8558 5a60 b73f 9d59 a9df cebf abbf
00000300: 6c2e 0341 70f1 84bf 1630 b998 9069 893f
00000310: ca9c cb82 d141 a7bf 34e0 aa7c 47fb a2bf

en3.weight f8 [50, 100]
0.05602111005849769 0.021973434011092946 -0.09826367679727165 -0.039626981191905435 0.032510091888413584 -0.11474938996996664 0.08490215233653813 -0.010135263441466745
-0.050212915173496644 -0.016425826590824828 0.0660820401006636 -0.05820802941675626 -0.024716362521938415 -0.06046822992701931 0.01388589062146572 0.20866136520435113
-0.07113392362073169 -0.2274929307441841 -0.04206388834197317 0.08819280634053064 0.12649663766528485 -0.03731242923950889 -0.04147017132050813 -0.09423822490170941
-0.053985339147642905 0.07400115361618989 0.09613485747450734 -0.06745498758487622 -0.0622639004336832 0.002408007150920965 -0.07789244623306672 -0.08331002620960583
0.12115885645913713 -0.12825934251301993 0.11193765431187683 -0.02825531605994954 -0.050378560989443835 -0.08819019789390888 -0.0023246436926306346 0.10037924788968394
0.06564312820747882 0.06944026608560161 0.05996540519526342 0.00019152171357747846 0.12065635007506217 0.0612496116002651 -0.022251228068559864 0.033430991268694844
0.02209921139553962 0.07736230708549584 0.04684264721378876 -0.09198689592680097 0.11880681473934025 0.018580016880284246 -0.013023646253099567 0.10452734176922274
-0.0014314535169741589 -0.042529646425817004 0.18165969085329367 -0.043272423986359936 -0.04322454294472016 0.04666962367037534 -0.0536633063210317 -0.07598980682277462
0.04740082177193845 0.09764660009224807 -0.16731525682547413 -0.22552570044009457 0.16989285392298298 0.0042297508210599796 -0.0008048629988635704 0.007962886660578575
-0.05912158712272585 -0.020810926820305022 0.003732035864122407 -0.039205143741686904 -0.015827795073288426 0.0623525904614285 -0.00011473181993227916 -0.08325863938018224
0.08919906733290203 -0.054876124277690334 -0.005897177712790492 -0.06990587851659794 0.17602448609157084 -0.022533371805158176 -0.0164154774665829 0.04131740693347614
0.3055457938900382 -0.0945663945827872 -0.06822144296435188 -0.0068035952037520464 -0.07613389103019959 0.04967023532201967 0.11759308927987736 0.04204899795544804
-0.029225568744157722 -0.025166481857273132 0.051908326272839415 0.07287839320016752 -0.10595630338433282 0.059693561330539185 0.022448408532140682 -0.05039716949798344
0.16354276561250644 0.021613033789177727 0.06403336096593494 0.058863127548088444 -0.10759980438119066 -0.07535225874451724 -0.0782966002326638 0.03566862595757483
0.1125483794295806 0.14280390746778066 0.009432201055037526 -0.370165809731205 -0.1461483107324266 0.0937230725944382 0.17958513625918973 -0.10672957696030959
-0.09818015417818356 0.030978724708227393 -0.02526977780147996 -0.028891191397193615 0.06001636894257976 0.057257260519112896 -0.1059134016473248 -0.05034822680291239
0.021726936530256865 -0.029342527053580186 0.017665701196004115 0.1120422007576629 -0.053295694665812375 -0.11787353353846372 -0.0254765879818731 -0.100749004374759
-0.16841326451207608 0.01726121521964637 -0.007522682923609668 0.059163066268631465 0.07791822937024505 0.011174163565833962 0.006156112186087529 -0.03752016948901654
0.14498046762539762 0.0014684388699878557 0.0009100219442024809 -0.013081829008761911 0.11108216112347548 0.047115214359894735 -0.13269034053194687 -0.05825858585077286
-0.02281388109715462 -0.11159361755022987 0.14202356978039535 0.08463865946636863 0.11394250136306941 -0.005332021658550911 0.158649059136887 0.05336738988357
0.14023682599584275 0.04521492443599072 -0.08349902306369597 -0.04372151880604709 0.03668427792248312 0.07126647185797211 0.013647436029940549 0.10924722364724737
-0.06184692535119388 0.10688225633316939 0.2352422282103344 -0.003620849892113271 0.00223376945910622 -0.006728933675121036 0.02269605734138995 -0.027278855170489325
0.041686180925863486 -0.06270785858776362 0.011662133984733428 -0.013661360976592509 -0.08706569330742804 0.04783952596249042 0.0825081976533751 0.07839170469311917
-0.19371674101465236 -0.09879180015929855 -0.07365118733266013 -0.030336172111370057 0.03694017753860706 0.05449340033419817 -0.10594958069307203 -0.08150050483762311
-0.08743552575944089 0.10936427288412855 0.04009841792428526 0.00882389532034991 -0.005573516805412052 0.04134272210495572 -0.16436268718435557 0.015423761546844807
0.0432501959407022 0.030582099014050478 0.029181779777596676 0.061587016789024306 0.24035666569919747 -0.12166887738196819 -0.09020843417220593 0.009203151211203228
-0.09979160497066487 -0.04873631855114908 -0.019711383831396537 0.027556880795398298 -0.3990190370643679 0.23572255902802833 -0.0188822370753175 -0.0378388838749275
-0.015679599841042467 0.07162849207912765 -0.08998963060784744 0.005708304812415007 0.0918697476693809 0.05026336435202421 0.07667463902199416 0.25198416407649415
0.19068863188790694 0.10022353933909217 -0.1237611417277659 0.10688754478185494 -0.07121253754747328 0.008833568362052319 -0.005471144874975894 0.10924237573631997
0.11551754656774213 -0.15679463845977296 -0.0722138661322611 0.0687882004523951 -0.09940926496245353 -0.0226627375224616 0.06791626513268814 0.0635746523474606
-0.05946870238484381 -0.07207794527653462 -0.00864184853474802 0.39120416896342114 -0.00888646940172236 -0.03556362712040498 0.06496427886298567 0.1151792847515657
0.18768619223618083 -0.00572014831401509 0.12821757830284908 -0.036861692887375626 -0.10012765993632951 0.07913982114896347 -0.009412006963784218 0.029087391850217515
00000000: 7879 2c87 ccae ac3f 1876 d531 3480 963f
00000010: 779f 3aee ce27 b9bf 5f52 84d8 fc49 a4bf
00000020: 00c1 e6aa 29a5 a03f 582e 284d 3760 bdbf
00000030: a33b a5bf 25bc b53f b9b9 2308 ccc1 84bf
00000040: 3a94 03d9 81b5 a9bf c5c6 1190 eed1 90bf
00000050: ecd6 15a9 c0ea b03f 4c4d 6b5d 71cd adbf
00000060: fcca d402 3f4f 99bf b494 f71b b1f5 aebf
00000070: 3e9e c2b0 3470 8c3f 36e6 be65 6ab5 ca3f
00000080: 0953 9633 d535 b2bf 0d09 cf04 7d1e cdbf
00000090: 11f1 8ae1 6589 a5bf 429c f9c2 cd93 b63f
000000a0: 2cc6 e9b4 0a31 c03f 88d1 a25e 9d1a a3bf
000000b0: e185 290b 943b a5bf 3866 fc0d ff1f b8bf
000000c0: 4e87 3464 f7a3 abbf bad6 a556 bdf1 b23f
000000d0: 30cf db44 4b9c b83f a00e a1e5 ba44 b1bf
000000e0: 2a0b 2bd0 0de1 afbf 4c92 c6fe f4b9 633f
000000f0: 7b2c 2d65 c2f0 b3bf f1c8 ff4d ce53 b5bf
00000100: 56dd 1c4e 4404 bf3f 2bfc bf58 cd6a c0bf
00000110: fee0 7534 f2a7 bc3f 169a a929 f6ee 9cbf
00000120: 2208 bdff 37cb a9bf 2538 c8ff a193 b6bf
00000130: 0079 4f94 210b 63bf f41d e252 74b2 b93f
00000140: b5b6 dbf0 fccd b03f 78fa dc57 d6c6 b13f
00000150: a5fb 681c c9b3 ae3f 829c 19fe 661a 293f
00000160: e28a a0a5 55e3 be3f b082 6eed 1b5c af3f
00000170: 88b5 66a3 06c9 96bf 0d04 58ec dd1d a13f
00000180: 834d d8f8 2ca1 963f 8f14 e022 04ce b33f
00000190: 55bd ae6b c2fb a73f d789 aa05 748c b7bf
000001a0: 05ef d897 1f6a be3f 6a96 70d3 a306 933f
000001b0: 2f98 da35 24ac 8abf c0c6 6fca 4dc2 ba3f
000001c0: 082c a282 f373 57bf 8dc6 0421 72c6 a5bf
000001d0: e7b1 9bef 9f40 c73f 971c ae9b cd27 a6bf
000001e0: b70b aafc 8621 a6bf f503 c3b6 14e5 a73f
000001f0: 65c2 49c3 c179 abbf bc17 2267 1174 b3bf
00000200: aac4 a0a6 eb44 a83f 4438 f619 5eff b83f
00000210: e1f7 171a 966a c5bf 001b e6b1 06de ccbf
00000220: 422f b68d 0cbf c53f c69b 2517 3753 713f
00000230: 3432 0221 ae5f 4abf 95bf 4f8e d84e 803f
00000240: 8e04 5c46 2f45 aebf 17e2 5ea8 754f 95bf
00000250: 0026 7c7f a592 6e3f 7c3a 6954 b212 a4bf
00000260: 958b d458 2935 90bf 5197 b4c1 adec af3f
00000270: 48a3 5da8 8513 1ebf b451 3f2d 7050 b5bf
00000280: d64c 0705 c0d5 b63f e733 352e b918 acbf
00000290: db64 a496 a327 78bf 5ae5 0606 5ae5 b1bf
000002a0: 0c7d 8769 f887 c63f cd15 e3fb fc12 97bf
000002b0: e102 780b 38cf 90bf c9d1 111f 8e27 a53f
000002c0: 5a09 0cf2 0f8e d33f bca0 08d4 8035 b8bf
000002d0: 4bf6 6ae2 f576 b1bf 694d 532e 16de 7bbf
000002e0: 0d89 17bc 827d b3bf 94dc 9588 606e a93f
000002f0: 9253 b1a8 941a be3f 51b0 183e 7287 a53f
00000300: e245 dab7 4eed 9dbf 6824 2102 3ec5 99bf
00000310: 37c1 7667 ba93 aa3f 2f37 618b 28a8 b23f
00000320: 483c d7c9 f31f bbbf 4493 648b 2790 ae3f
00000330: 5c9e f831 b7fc 963f be0f 9c65 a8cd a9bf
00000340: 43cc e626 f8ee c43f b0dd 2a25 ba21 963f
00000350: 919f 3387 7d64 b03f 23c5 84cf 4e23 ae3f
00000360: c88a df28 a98b bbbf 51c8 fc1e 494a b3bf
00000370: 9624 63f9 3e0b b4bf f34a f67b 2843 a23f
00000380: 462b de78 f8cf bc3f 1e56 2800 6647 c23f
00000390: 4d47 7c98 3051 833f 0325 b9ef cbb0 d7bf
000003a0: bf0f 7be3 fcb4 c2bf 9d7a ac3b 3cfe b73f
000003b0: b55b 8a4f a5fc c63f 4f79 8f2a a152 bbbf
000003c0: d5c0 4fa7 5522 b9bf 8478 f905 e3b8 9f3f
000003d0: 182c f014 52e0 99bf b610 c608 a795 9dbf
000003e0: 8d85 aa2b 77ba ae3f 88ba c6da d250 ad3f
000003f0: 1a8b 4804 241d bbbf 2f69 0f27 3ec7 a9bf
00000400: cfdf 5b07 963f 963f 1bf9 4ea8 f70b 9ebf
00000410: aa4a 9723 f516 923f cfa9 0634 ccae bc3f
00000420: 8beb 36c3 9249 abbf ce95 9cbb f52c bebf
00000430: d682 c8e0 8816 9abf 12e7 e4ce afca b9bf
00000440: 155f a5db 908e c5bf 552e 6e8b ecac 913f
00000450: e54a 29d2 1ad0 7ebf 147c 8215 9f4a ae3f
00000460: 474d e8f6 72f2 b33f 6771 9ad8 7ae2 863f
00000470: c4f2 27c8 2637 793f 9899 caf9 d735 a3bf
00000480: 6843 814f b88e c23f a3b6 0e3b 140f 583f
00000490: 234a 973e d1d1 4d3f 58b0 1d5e a5ca 8abf
000004a0: 99bf 3169 e16f bc3f dfb9 a341 7c1f a83f
000004b0: 6137 8a40 fffb c0bf 166c e1c1 11d4 adbf
000004c0: 1615 d4a4 855c 97bf ce10 d239 6691 bcbf
000004d0: 81e6 bb0d d42d c23f 41a5 6212 e1aa b53f
000004e0: da93 faf4 552b bd3f 4c15 52aa 07d7 75bf
000004f0: 615d 44c4 9c4e c43f bb14 7274 f852 ab3f
00000500: 146a acc2 47f3 c13f 1ec5 7c1b 6926 a73f
00000510: 5a78 4e25 3160 b5bf 3a8d ceba aa62 a6bf
00000520: 56ac e81b 48c8 a23f 5269 eefd 843e b23f
00000530: 78fd 61db 2ff3 8b3f c864 be44 a0f7 bb3f
00000540: f4a9 7b73 66aa afbf 3841 79b3 a25c bb3f
00000550: 5999 66d6 6a1c ce3f a8eb d9fb 78a9 6dbf
00000560: bcdc c1d8 8d4c 623f e143 2561 cc8f 7bbf
00000570: cc1d 1ea0 a23d 973f 5d7b 51fb fcee 9bbf
00000580: 3c1f 8b1f e457 a53f e02d d649 9f0d b0bf
00000590: 222b 8720 51e2 873f ee11 e8d4 7cfa 8bbf
000005a0: 6de5 5bf1 ef49 b6bf a119 ee1e 6c7e a83f
000005b0: f5b9 92da 411f b53f 5744 ef8f 7a11 b43f
000005c0: ba3d accd b5cb c8bf 5712 cc5e 6b4a b9bf
000005d0: acc4 e7e0 cdda b2bf 5ba9 6a0c 7210 9fbf
000005e0: d79d dfac d2e9 a23f c401 9118 8fe6 ab3f
000005f0: 3806 1a00 831f bbbf ac94 e292 37dd b4bf
00000600: 9636 a5b3 2c62 b6bf e95d 6307 4cff bb3f
00000610: b058 36a3 c787 a43f 0f06 982e 4312 823f
00000620: ea7c 7286 41d4 76bf 129f bc8e df2a a53f
00000630: a9da 1127 d609 c5bf d466 663b 7e96 8f3f
00000640: ecc8 38c2 e324 a63f 56fb 6eec e950 9f3f
00000650: 11aa 2217 d4e1 9d3f cb22 ef5d 5588 af3f
00000660: 45de 46d9 01c4 ce3f 28ed 4b09 b125 bfbf
00000670: 69ce 9762 e617 b7bf 9830 c70b 1ad9 823f
00000680: e1ac c34f f18b b9bf 99f7 9b7c f7f3 a8bf
00000690: 91b4 a893 382f 94bf 3d1c 2ff7 de37 9c3f
000006a0: 5610 ab24 8789 d9bf 4137 fa24 282c ce3f
000006b0: 50f0 da7a dd55 93bf df18 8541 9e5f a3bf
000006c0: 5667 2022 500e 90bf dd0f f1ae 3e56 b23f
000006d0: 6598 7078 8f09 b7bf 6f3d c267 9761 773f
000006e0: d554 bb99 c684 b73f 7762 28a4 1ebc a93f
000006f0: c335 08fb f2a0 b33f 5461 f42f 8220 d03f
00000700: bbb9 d62e 7c68 c83f 7c32 c0f7 3fa8 b93f
00000710: 1a83 3c68 cfae bfbf d213 306d fb5c bb3f
00000720: c2e1 d41f fc3a b2bf 50a5 c679 5517 823f
00000730: 6f87 f444 e968 76bf 65f5 1fef 4ef7 bb3f
00000740: 5663 9fd4 8e92 bd3f 29ba 2fc2 d811 c4bf
00000750: a014 5ba1 9b7c b2bf d931 4b7f 1a9c b13f
00000760: 0ae2 eeb5 e272 b9bf 5bba fc91 e634 97bf
00000770: 2282 9cd9 f562 b13f 86d9 afac 6d46 b03f
00000780: b0c5 c187 ae72 aebf 85c0 b941 b373 b2bf
00000790: ba79 ab46 d1b2 81bf a06e f035 7d09 d93f
000007a0: 118e a8bb 1133 82bf e48c d14e 6535 a2bf
000007b0: 74ef 1fbd 7fa1 b03f f944 2fbd 637c bd3f
000007c0: 5a57 c8e4 1906 c83f 55ce fd9e 026e 77bf
000007d0: 94a1 ca00 6f69 c03f d15a da2a 89df a2bf
000007e0: d5fe d960 f7a1 b9bf f965 a5df 8142 b43f
000007f0: 8f1d cb30 9a46 83bf cdf6 e3d2 15c9 9d3f
