projects/baler_1000_epochs/output/compressed_output/model.pt (torch, 499070 bytes, 16 tensors)

en1.weight f8 [200, 24]
000000 be d3 c8 c8 e4 52 c4 bf 60 cc 82 19 22 95 aa 3f
       -0.15877971462182744 0.051919046033980676
000010 5b 37 9d e5 67 d5 78 3f df b8 f9 f6 fc 62 88 3f
       0.006062894675620568 0.011907554900258464
000020 4c 49 57 0e e7 47 72 3f 8e 11 72 d7 4c 1b c5 3f
       0.004463102877212254 0.16489563484004716
000030 42 ce bf 9d f1 bc c7 3f a4 90 c5 78 be ec d0 3f
       0.18545360758399637 0.26444970888247554
000040 a6 6f 94 6c ab 20 c4 3f 7f a4 18 da a2 64 c6 3f
       0.15724699784993595 0.17494617127639242
000050 37 19 f5 e1 6d 62 d6 3f 60 6b 06 41 f8 0d 99 bf
       0.3497576433768645 -0.02446735283738677
000060 6a ca 7b 42 d2 12 c4 3f 13 0b 5f b4 b4 74 a4 bf
       0.15682438131587456 -0.039952895181633384
000070 85 59 c5 0e 14 6b cb bf bc 7d e6 c5 8a a9 82 3f
       -0.21420527192340102 0.009112438358726098
000080 46 4f 02 ef ad f3 91 bf e7 fc d5 e4 eb 01 d3 3f
       -0.017531125748589525 0.2969922766423693
000090 90 9a 38 32 cd e6 aa bf e8 01 71 f5 2c 19 c2 bf
       -0.05254212606478348 -0.14139329895443997
0000a0 1f 94 81 ea 99 44 c6 3f b3 4e f3 df 59 96 b5 bf
       0.1739685435342446 -0.08432542531528035
0000b0 34 65 ca 60 d1 cd c5 bf 03 5a bf 7b 9a c0 cb 3f
       -0.17034356332877965 0.2168152908549957
0000c0 1b ae a1 e9 e9 60 f9 bf 3a 35 27 4e c0 8f 90 bf
       -1.5861605764611173 -0.016173367281045993
0000d0 15 a7 55 70 7b 5f 83 bf de a7 b4 29 4a a4 d8 3f
       -0.0094594615608972 0.3850274474413008
0000e0 cd 49 3c 23 37 bc aa bf af 43 e6 43 f3 cb ee 3f
       -0.052217219401558525 0.9623962713395623
0000f0 40 9a 91 8f 53 4a d0 bf 24 90 39 9d b5 0c a7 bf
       -0.25453652401339255 -0.045018840258109344
000100 96 93 6c 7b 48 fd de bf b1 28 69 5e 50 13 e7 bf
       -0.484209175616621 -0.7211076587639323
000110 39 f7 43 92 4e d0 d9 bf 30 d7 82 56 c0 ff ed bf
       -0.40333904536952364 -0.9374696435613483
000120 82 ee 72 b5 61 8e 8c bf a3 a0 ba c4 99 08 b3 3f
       -0.013943446493036808 0.0743499856276935
000130 aa fc 13 67 2c f8 d1 3f 6a c8 ed cc 85 3b f2 bf
       0.2807723051664178 -1.139531898978499
000140 09 00 f4 4e 2c 6d ad bf 4b 1b dc a7 2d 9d c5 bf
       -0.05747354949744483 -0.16885920234946136
000150 dd 9d f1 62 d8 52 c2 3f 02 32 fc 13 e5 b8 d6 bf
       0.14315323668709726 -0.3550350852172245
000160 95 00 5d ca fd d4 e0 bf 8a 20 84 fe 01 f6 e4 bf
       -0.5259999229820261 -0.6550302477853773
000170 19 b0 6a ca e2 46 83 3f 32 50 69 54 12 32 cc bf
       0.00941254787661454 -0.22027806398057376
000180 95 0f 17 c8 d2 33 a0 3f 6a b7 72 3f 65 f8 8b bf
       0.0316453809023464 -0.01365737056616086
000190 c8 33 00 a4 77 87 ef 3e eb 94 6a 68 d3 87 ae 3f
       1.5034279499581945e-05 0.059630018707403774
0001a0 84 df 2f a0 c1 0d a2 3f 8f 20 ce 3e 95 24 c8 3f
       0.035261202625348737 0.18861642424258604
0001b0 89 8e e0 f3 0e 13 b9 3f 07 39 68 5e c8 34 a7 bf
       0.09794705823929396 -0.045324574970537816
0001c0 75 c3 ab 48 06 33 b6 3f d2 38 a0 b1 81 7f b3 3f
       0.08671607279008049 0.07616434656685847
0001d0 f4 cd 2a 63 53 13 fd bf d0 ee 6b 31 90 a9 d1 bf
       -1.8172181962698888 -0.27597431970910424
0001e0 a9 8d 54 ad f5 ff cf bf 0c 70 41 3e 80 b5 92 3f
       -0.2499987694110193 0.01827049617746472
0001f0 09 4b 8e f5 7e aa b7 3f 34 ff a4 b2 1b ea 89 bf
       0.09244531149878922 -0.012653557194994038
000200 f2 04 94 88 5d 32 dd 3f 00 e4 d2 69 4c 1f 0d c0
       0.45619905793871773 -3.6402824656947814
000210 bc f2 38 81 db b1 ae 3f 67 ad 82 48 35 b8 b2 bf
       0.059950694584107705 -0.0731232931163298
000220 81 d4 2f f7 76 61 d3 3f de b5 c8 20 b3 e7 bb 3f
       0.3028237737592648 0.10900420713797795
000230 f0 ef 89 70 bc 9d d2 bf 8f d3 16 50 52 c4 c1 bf
       -0.29087744703406226 -0.13880375776866713
000240 e1 36 dd 04 35 3b d7 bf 48 34 08 85 0d da 71 3f
       -0.3629887149335059 0.004358341990621524
000250 40 6a d9 e9 db cb 80 3f 66 fa 17 0d a3 cc cd 3f
       0.008201330255521389 0.23280752314890946
000260 c6 5d 31 e5 c9 70 82 3f d5 7e 8a 10 ba 7e d5 3f
       0.009004189783964455 0.33585979094821755
000270 37 be a3 29 f2 23 b3 3f 53 f1 da 50 46 f2 e3 3f
       0.07476724163620295 0.6233245448307038
000280 24 4f 61 1a d4 4c ae 3f 32 1b 63 eb aa a8 d5 3f
       0.059179905147770634 0.33841965662979867
000290 d1 93 d2 2d b7 6d dd 3f 01 c6 b4 3e e3 74 c9 bf
       0.4598215053068176 -0.19887962877105284
0002a0 cf 92 fd 44 fa 35 c1 3f aa 67 14 42 08 ac 78 bf
       0.1344597660892277 -0.006023437746330554
0002b0 89 38 ac de aa 02 c2 bf e7 93 67 8b 4f e0 b4 3f
       -0.1407064044255473 0.08154770997460013
0002c0 e9 ee e4 21 08 62 a4 3f 95 af 68 cd f2 ab d9 3f
       0.03981042302845401 0.40111990031686534
0002d0 5b 9f 23 13 41 3f a1 bf 22 25 64 15 68 a4 ac 3f
       -0.033685716234514294 0.055941822634915775
0002e0 6c 7a d8 04 a3 44 db 3f 1a 61 18 7f 07 4c c1 3f
       0.426064257366227 0.13513272958585604
0002f0 88 82 e7 29 7b e1 ca bf fc dd 71 37 86 51 c3 3f
       -0.21000613733396656 0.1509254236914187
000300 55 ed 53 4a 40 e8 95 bf 53 11 3d a4 a2 83 72 3f
       -0.021393780266391122 0.004520068472462962
000310 bf 32 e6 b8 db af 80 3f 76 c9 64 bb 0c 63 b1 3f
       0.008147923069168226 0.06791762900392037
000320 93 c6 47 8d 98 45 a5 bf 53 98 e4 26 95 88 93 bf
       -0.04154659962285936 -0.019075708865010487
000330 ed 7c 7f 9c cd 71 a0 3f 80 f3 85 b6 3d dc c7 3f
       0.03211824927688576 0.18640872394817265
000340 1d 6f 7f 3a 5c 92 dd 3f d0 21 f1 70 ed 27 f3 bf
       0.462058121802089 -1.1972479259294353
000350 d9 d7 16 b1 d4 cc d7 bf 53 c5 5b 71 4e 7c dc bf
       -0.37187688154096815 -0.44508706159748107
000360 e3 8b bc 10 5e 57 be 3f 73 94 e4 1b 6c 9a 9f bf
       0.11852062138181867 -0.030862511827895078
000370 d8 8a c7 b4 c9 fd bb bf 53 f3 62 29 93 0b f1 3f
       -0.10934124625741093 1.065325891176333
000380 03 4c 8b 6e 81 a8 fc bf 1b 56 fe eb 3b f0 c4 3f
       -1.7911390607957862 0.16358136199112114
000390 ea 7f 79 52 e3 08 cf 3f 90 fb 10 fc cc ae e2 3f
       0.2424587395389602 0.5838379786654162
0003a0 5a 3a d7 ce 1a f4 ef bf 27 8a 71 ed b1 ea c2 bf
       -0.9985479392870034 -0.14778732389375301
0003b0 d4 e2 51 e5 22 8f ba bf 66 0c 99 88 cc 72 c0 3f
       -0.10374658678655219 0.1285033862096469
0003c0 8a 3f 10 84 73 0e c3 3f 86 5f be f3 e1 ce c9 3f
       0.14887851665889357 0.20162605668587846
0003d0 8a 04 ed 83 57 d3 c8 3f 6a e5 70 b2 8d 27 c3 bf
       0.1939496416253273 -0.1496445771497677
0003e0 06 71 3c 5e 20 7c c1 3f 56 ec 14 d2 d3 18 da 3f
       0.13660053826686908 0.4077653457240492
0003f0 e8 94 b1 0d 8d 62 c0 bf 01 c5 9e 29 6a 07 be 3f
       -0.12800753754269256 0.11730063930624014
000400 08 4e 62 ea 8b 22 e0 3f 6c 33 10 0a 6e 14 ce 3f
       0.5042171075642168 0.23499846927043266
000410 c8 b9 de 74 f7 88 9a 3f e6 be ab 49 5f 53 d2 3f
       0.02591311121767051 0.2863386363451198
000420 ef b9 cc af 88 af c1 bf 73 3f c4 d1 81 20 ab 3f
       -0.13816937049837416 0.052982384544633464
000430 d7 16 92 d3 87 35 8e bf 4f db fd 3e 8a 93 d1 3f
       -0.014750538963436295 0.27463012839819084
000440 b9 29 83 49 0c 11 d8 3f a2 54 bc 60 38 84 c4 3f
       0.3760405271429153 0.16028504107876979
000450 42 b6 e6 1e 00 ae ba bf 27 1e 98 8f 6a 65 d3 3f
       -0.1042175364916256 0.3030649568831642
000460 5d 9e 5b f1 74 2c d2 3f 49 69 ad 68 a4 95 bb 3f
       0.2839634282122228 0.10775210910415924
000470 1c 7f b4 77 0a 13 a5 bf ef 72 2b 98 3b 46 72 3f
       -0.04116089545482124 0.004461510458636949
000480 b6 05 3c 9f 89 b3 dc bf 79 3f 64 74 33 2f c8 bf
       -0.44845810461273616 -0.18894046004470136
000490 b2 92 00 5c b5 94 9b bf 06 0b 8a c9 e5 23 c8 3f
       -0.026934465160723682 0.18859550801069974
0004a0 25 59 1d f0 61 1a 85 bf 45 63 9c 61 5b 94 c3 3f
       -0.010304227009026843 0.1529649950614617
0004b0 f7 96 64 95 8d 97 c0 bf b3 69 f1 f0 a2 b8 c0 3f
       -0.12962503237320508 0.13063465847774366
0004c0 4b 59 17 94 1f c0 eb bf da 82 d4 c0 a0 18 c3 bf
       -0.8672025577932713 -0.1491890851548508
0004d0 3f 87 7d 9f 3b 92 de bf 37 37 15 f4 a3 32 d9 3f
       -0.47767534804562567 0.39371584736078397
0004e0 f3 07 94 7e 0a 57 b1 bf 01 70 6e d8 fb 7a bf 3f
       -0.06773439016617981 0.12297033342332499
0004f0 ed 64 84 c3 5a 5e bb 3f 0e a0 fb 2f e5 a1 e6 bf
       0.10690848611229216 -0.7072626053968649
000500 28 e8 59 29 2e 05 c9 3f 40 ee f7 12 d5 48 d1 3f
       0.19547059077359674 0.2700703320731215
000510 cb 48 ff 12 c6 15 66 3f 17 f5 f2 d9 34 a1 e2 bf
       0.002695929397284668 -0.5821785218064716
000520 7a 51 6f 6f 08 a7 b0 bf 33 bf b5 6d 43 7d b1 3f
       -0.06504872055604052 0.06831761768785043
000530 5c 70 f5 29 8e e5 ae bf 44 8c c9 a4 e8 d5 b6 3f
       -0.06034511816207619 0.08920148871543271
000540 d9 8f 4a 58 5e 07 a8 3f 8f 64 df cd cf 80 84 3f
       0.04693121745847834 0.010011313886865629
000550 14 6a bd fd 9b b3 6a 3f 28 2c 88 14 80 cb 9b bf
       0.0032594725325172467 -0.027143479588669944
000560 d3 40 70 40 41 1e de bf b6 98 64 52 f0 e3 92 3f
       -0.4705966119081612 0.018447642353884595
000570 2e 40 70 4f 47 c6 ac 3f c9 3a 75 04 82 b3 bd 3f
       0.05620024532993316 0.1160203228839506
000580 61 11 85 aa f7 d7 d1 3f bb f5 ae 44 a9 d2 6c 3f
       0.2788066067917239 0.003518419839990653
000590 cc c7 54 98 99 73 92 bf 76 41 22 33 93 4e bf 3f
       -0.018019103930050837 0.12229270933517519
0005a0 d3 ed dd 42 ec bc ae bf 2e 66 e7 9c 78 3e a7 3f
       -0.06003511730429136 0.045398492005642374
0005b0 6c c5 04 6b 9d 2d 61 bf ba cc 05 89 9b 0d 94 3f
       -0.0020969461985706397 0.01958315872020642
0005c0 5c 89 67 95 87 01 84 3f 9b 86 ca 99 bc b3 61 bf
       0.00976854252525488 -0.0021609004600840593
0005d0 78 17 26 b2 d8 7d 70 bf 52 9c 65 18 79 1f b1 3f
       -0.004026266544661421 0.0668864903033051
0005e0 79 61 3e 46 cb f3 6a 3f 85 07 66 7e a0 2f ad bf
       0.003290078182498654 -0.05700398962927892
0005f0 5d 8e 4d 04 1c 17 c2 3f 69 d2 1f d4 6e ee 8f 3f
       0.1413302441607013 0.015591493462104826
000600 eb e2 35 9e b7 71 d2 bf 67 e2 53 e7 c8 5a 8b bf
       -0.28819075060122995 -0.013356751975593896
000610 d0 1c 88 a8 75 8f 62 3f fd 12 bd dd 89 78 cd 3f
       0.0022656724943349374 0.23024104430273687
000620 2e 08 43 7c 76 d9 b1 3f 51 e8 3c 1c 91 b7 d4 3f
       0.06972446950661101 0.32370403058633196
000630 75 4f 02 63 28 f1 b7 3f 19 32 5a 58 53 5c c6 bf
       0.09352352540218851 -0.174692552700791
000640 a8 ec 14 85 60 aa b0 bf 58 e3 37 6f 6e e0 7b bf
       -0.06509974717202971 -0.00680583132224729
000650 11 01 59 36 6f b8 e7 bf 29 e0 a0 29 48 89 ed bf
       -0.7412639676549891 -0.923008042626866
000660 bf 14 2f fc ff ed ca bf 55 73 7e 50 11 1e 58 bf
       -0.21038818181674476 -0.0014720124326920898
000670 32 14 47 01 71 8b aa bf c0 08 3f 22 26 98 d7 3f
       -0.05184510365101182 0.3686614355502904
000680 dd 2c 0f 30 8a 81 be bf 87 65 ce d8 b7 8b c0 bf
       -0.1191641204197142 -0.12926385961763406
000690 33 08 de 2c cf 0b 02 c0 da 7a 03 46 fc 31 b7 bf
       -2.255766249204521 -0.0906064673358559
0006a0 7c e4 01 a5 3d 45 64 bf 96 6a 4c 09 2d 1d d0 3f
       -0.0024744228358569136 0.2517807570272138
0006b0 4e bd cf 79 2f 52 b2 3f b1 4e 96 5e 14 88 9f 3f
       0.07156655048287527 0.030792539857044946
0006c0 1f 9b 95 2a 15 fc d1 3f f5 6f fd 5d 62 b1 d9 3f
       0.2810109058249725 0.40145167521200104
0006d0 c2 3e 23 f0 74 3f d9 bf d2 a0 f4 28 f9 56 5f bf
       -0.3944980950445648 -0.0019128258898693418
0006e0 2d 70 72 e0 35 8e b4 bf 32 48 9c c5 79 1b b7 bf
       -0.0802949593511932 -0.09026299547647978
0006f0 dc 11 95 d7 11 b1 93 3f b0 30 bc 76 90 14 b9 bf
       0.019230154784297557 -0.09797003649527158
000700 53 2d 29 3f 38 64 bc 3f 7d 1a 13 ff 5c a7 88 bf
       0.11090423147213828 -0.012037970098743184
000710 85 50 0f 71 d5 50 99 bf bf ca 1a 3e f5 ea 8b 3f
       -0.024722418809532094 0.013631740529807755
000720 b8 05 13 1b 01 70 94 3f 6a cb 69 11 89 71 ba bf
       0.019958512570843218 -0.10329491305473729
000730 76 e1 a3 3d ec 30 b3 bf f8 61 97 07 06 02 e0 3f
       -0.07496525292288489 0.5002470157879193
000740 4d 07 79 76 c5 fa c8 3f c9 6a 5c fe 8e 2b bc 3f
       0.195152933929473 0.11003965101228198
000750 13 6c 32 52 3c 11 b3 bf 12 60 ed 68 ab 06 c0 3f
       -0.0744817448307205 0.12520353911782017
000760 98 4a 50 5f 1f be c4 3f 4f ba 12 71 79 42 7b 3f
       0.16205207971559754 0.0066551917854398976
000770 2b 1e b9 5c 4e ec b5 3f a5 25 27 87 51 26 b6 bf
       0.0856369949698254 -0.08652219342834273
000780 43 e2 e5 e6 ce 39 c8 bf 1d 72 e4 a9 9f 88 ac 3f
       -0.1892641665870248 0.055729856003584134
000790 b2 f7 a0 fe e5 cb 97 bf 6d 04 73 bb a4 77 c5 3f
       -0.023238748232180924 0.16771372940823728
0007a0 b5 e3 52 a6 bb cf c8 bf 78 93 55 48 a9 cf a0 3f
       -0.19383950825956978 0.032834329681270924
0007b0 41 3a 79 f1 b2 70 c2 bf 18 70 35 01 d6 44 b7 bf
       -0.14406430044842192 -0.09089410333166403
0007c0 f3 e8 5b 91 dc 7f d9 3f da 3d e5 7c 6c 7f df 3f
       0.39842905230729214 0.49215233036826833
0007d0 2a d6 a1 a7 dd a0 c6 3f c4 bb 68 06 8d 10 ba 3f
       0.17678423581280472 0.10181504637215172
0007e0 7d 3a 50 88 9c 07 72 bf c4 3e 56 51 06 3e b5 3f
       -0.004401790099122335 0.08297767148746532
0007f0 56 63 d1 fa ed 9f ba 3f 3e a6 3f 04 cb 6a cc 3f
       0.10400283215984749 0.2220090647454515

en1.bias f8 [200]
000000 73 4d 9b 57 88 5f 88 bf 96 9e 8a cb 15 7d 86 3f
       -0.011900963948767473 0.01098076846513089
000010 bc 50 a4 a1 63 fb ac 3f 69 6e ac 23 b2 fe 6a 3f
       0.056605447274848925 0.0032952765735794654
000020 cc 7d 28 e2 b5 5a d3 bf 47 f1 34 1f 26 9f bf bf
       -0.3024115284515261 -0.12352216970333983
000030 26 2d d7 6f 07 7b be bf 86 1c 71 6b bd 7d d0 3f
       -0.11906477432710413 0.2576745557057126
000040 40 e8 91 94 c9 3a ac 3f 21 90 7d 21 02 51 bd 3f
       0.05513601244543098 0.11451733892096218
000050 e7 52 a2 83 7c d7 ae 3f a3 41 d5 07 b3 2b a8 bf
       0.06023778063641832 -0.04720839949243618
000060 f3 e3 38 37 4b 21 a4 bf 27 3b 16 d4 ca e7 85 bf
       -0.0393165116224238 -0.010696014973999702
000070 4b 90 5d c7 7a 1e c1 3f f3 e5 ce d0 67 6d c4 3f
       0.13374266371386265 0.1595887918063422
000080 4a 4a 0b 95 ab 81 b3 bf 96 11 51 1b f4 5c c5 bf
       -0.07619736088535337 -0.16689921697446825
000090 80 c8 57 88 3d b7 70 bf 6a 87 69 7a cc b2 ce bf
       -0.004081001626660918 -0.23983150460395147
0000a0 7c 74 39 b6 e9 4d c3 3f 22 c1 da 44 16 20 a3 3f
       0.1508152141349547 0.03735417929181241
0000b0 fc d7 28 b6 0b 4c 97 bf 21 3e 69 7f 9e b3 94 bf
       -0.022751029008041698 -0.020216442610317856
0000c0 8e 9e 3c fd ad ab b4 bf bd 7e da d3 06 c0 c6 3f
       -0.08074462349451947 0.17773518890770915
0000d0 d0 4e 72 2e bf 30 74 bf f1 cc ed e1 a4 ab e4 bf
       -0.004929301073520256 -0.6459526455568306
0000e0 c2 1d c5 14 67 9e 96 3f 56 a0 cf fd b0 af cc bf
       0.02208863319654398 -0.2241116751968117
0000f0 40 c9 4b fd 48 2b d0 bf fd 02 99 cc c1 b9 d1 3f
       -0.25264191375676504 0.27696270923847505
000100 d9 94 c2 d0 66 33 bf bf 90 33 a3 c0 69 f2 8c bf
       -0.12187807652169926 -0.014134241286592603
000110 51 5b c1 97 c5 de c1 bf b3 77 0c ff 22 34 a5 3f
       -0.13961095724035968 0.041413396486162844
000120 1b ff c5 32 2f 64 cb bf 80 5f 67 2d 83 54 74 bf
       -0.2139948842923268 -0.004963409816319486
000130 75 2d 77 c4 b6 ea c3 3f fd 6f 95 4f 81 b4 4f bf
       0.15560040085834329 -0.0009675628090621832
000140 02 87 0d 54 69 c9 9d bf 5d 92 be ad 2c 88 be bf
       -0.029088636164835265 -0.11926535836989545
000150 e1 7c df 8f a2 20 89 bf 59 78 31 66 61 1d a9 bf
       -0.01226927758756208 -0.04905228016353708
000160 8d d0 f4 26 81 19 c6 3f 8a 87 85 33 d4 c1 bf bf
       0.17265333559192123 -0.12405134446956204
000170 5f ef 8a d3 53 02 93 3f 75 b8 49 39 b0 d2 c9 bf
       0.018563566004316964 -0.2017421989180012
000180 ef b2 74 79 29 30 d9 bf 6c ef 4d 3e e5 6e 9f 3f
       -0.39356457577632303 0.03069647019172754
000190 25 bc 3e 5a a3 2d d3 3f da 84 1b 81 e8 19 c2 3f
       0.29966052830690365 0.14141565612866352
0001a0 25 a6 5b 38 ee 5a cd 3f ae e8 b9 53 f3 37 cc bf
       0.22933748008590374 -0.22045747364228901
0001b0 b9 0b 3a ca c1 c1 bd bf b3 31 40 7a cd 2a d2 3f
       -0.11623774707008651 0.28386246622610684
0001c0 50 23 93 1b 3c bc b4 bf b0 3e c6 b1 ef 8d d2 bf
       -0.08099723504268508 -0.2899131046369616
0001d0 55 a4 cd 32 cf 62 c1 bf a9 76 94 3f 1d c0 c2 3f
       -0.13582792263631185 0.14648786167611164
0001e0 6f 69 a4 c3 af 7e b3 bf e8 79 93 e4 b2 ff 95 3f
       -0.07615183378621791 0.021483226014305773
0001f0 d5 74 6d 58 1c 57 ba 3f e1 de 7f dc b2 7a bd 3f
       0.10289170416713785 0.11515348323143428
000200 42 4f 60 2e 24 6d c2 bf d8 f9 7a c5 10 80 9c bf
       -0.1439557291456542 -0.027832281163449796
000210 b9 a9 ef be 02 85 d0 3f 10 a0 71 64 77 e1 ce 3f
       0.2581183304415862 0.2412556877563934
000220 e7 11 e7 43 76 ab c3 3f 24 c5 30 4a f1 d0 81 bf
       0.153670104175162 -0.008699307514776829
000230 36 67 9b e4 c0 9f 9a 3f cf ea dd 4c 00 f6 c1 3f
       0.02600003619486487 0.1403198600126729
000240 d3 c4 8d 24 61 80 a4 3f 3e da 14 cd 97 36 bf 3f
       0.0400419575806922 0.12192677265998328
000250 6e 1c b4 d1 61 e4 ce bf be a0 c4 da d6 b1 e4 bf
       -0.24134466876441557 -0.6467088959516543
000260 cc 19 39 8e 23 67 61 3f 5d 6b 33 ae ae fe c7 3f
       0.0021243757671840276 0.18745978837872715
000270 f7 1e 61 cd 0e 7f b3 bf 5b 57 f9 51 7b 89 c0 3f
       -0.0761574984945773 0.12919560911785308
000280 e1 2b 84 eb ce ff 96 bf 0f 87 7d 61 d4 00 54 3f
       -0.02246020615079292 0.0012209009200536169
000290 ad 9e 5a 05 53 83 c4 3f 14 44 db ca e3 39 a8 3f
       0.16025769959855066 0.04731666423106887
0002a0 d3 7f bb 5e 74 e8 c3 3f 22 66 91 c4 d3 d6 5d 3f
       0.15553145051580816 0.0018212383313510679
0002b0 61 94 06 0f 2b 77 9d 3f fa c9 8d a3 31 01 c1 bf
       0.028774903099151653 -0.13284893499401546
0002c0 79 d7 ec e3 72 ab 78 bf 39 8d 33 7d ed 94 c3 3f
       -0.006022881307947142 0.15298241246555636
0002d0 cf 01 33 1c 37 05 b2 bf ea 5a 61 5f 74 6b 8a bf
       -0.07039207876642382 -0.012900265846992071
0002e0 01 42 84 95 be c8 d5 bf 72 79 66 9f de 6b ac 3f
       -0.3403774700282441 0.05551047988704995
0002f0 e4 82 11 51 bd a4 96 bf 8a 45 05 3b 74 11 74 bf
       -0.022112806389830278 -0.004899457955916184
000300 8a 6f 23 b6 ce 2f 90 3f 05 7a 73 82 f8 ee b5 3f
       0.01580737101254174 0.08567765412178836
000310 76 f7 ca a9 60 ea c2 3f 16 0e 68 5b 05 4d 91 3f
       0.1477776364389986 0.01689537401581561
000320 8e 1f 98 57 71 2d 57 3f c8 e2 37 32 38 b9 a3 3f
       0.0014146429879264596 0.038522487764515
000330 14 d3 db 63 8a bd c1 bf b6 c4 68 0d aa 82 70 3f
       -0.13859681964790893 0.004030861155613843
000340 21 e9 ee fe 9e d9 79 3f 83 dd b7 b1 42 c5 6b 3f
       0.00631105525729428 0.003389959585316128
000350 16 57 d9 51 0b 17 b2 bf c8 36 61 89 dd a9 82 3f
       -0.07066412685648191 0.009113054995533956
000360 4f ba ac 0c 0d 5a 9c bf f1 e8 11 28 97 47 4d 3f
       -0.02768726720676745 0.0008935440129243228
000370 2b 1a 9b ef 90 8e c3 bf 94 d1 04 ae df b7 bd bf
       -0.15278827380662227 -0.11608694075113696
000380 8e 9c 42 56 98 4a dd bf 4f bb e7 19 cf b0 cc 3f
       -0.45767792152259623 0.22414578213598665
000390 8f ff 31 b5 3a c2 9c bf 63 2e 61 2b 97 a8 92 bf
       -0.02808467608383541 -0.018221246740991136
0003a0 8a 01 df 6b 19 3d b3 3f d5 a8 8b 69 7f 71 9a 3f
       0.07515105136463354 0.025823584382046533
0003b0 eb b2 31 95 da 8c 8b 3f 15 8a 3c 0b a6 d0 c7 bf
       0.013452251127284728 -0.1860549502244601
0003c0 0d 51 cb e1 d1 b9 ab 3f 8f 2e 67 d7 83 29 cd 3f
       0.05415206795956538 0.22782943742491965
0003d0 22 5f 06 0c 0e d5 92 3f bf 63 8c 3e 79 ab b5 3f
       0.018390864833775507 0.08464772965488886
0003e0 1e 79 c7 df ba 01 bf 3f a9 b2 e8 28 06 ba c5 bf
       0.121120147355644 -0.1697395038367138
0003f0 91 27 8c 64 11 ce b4 bf fe 85 82 73 01 c7 c7 bf
       -0.08126934723637037 -0.18576067104463329
000400 be 5e 26 79 63 4f cf bf b1 ed 21 be 3f 05 d0 bf
       -0.24461024680635107 -0.2503203732264537
000410 8b bb a7 d1 ff 56 c3 bf ba 95 1f 54 9b 68 d5 3f
       -0.1510925077158983 0.3345096894757621
000420 43 bf d2 8c 51 07 85 3f 16 43 6d 26 9f f3 c6 3f
       0.010267865285953475 0.179309743655289
000430 58 c6 02 ea 6a ca 9b bf fd 58 ce e2 d8 73 98 bf
       -0.027139349491966364 -0.023879422038214127
000440 4f 34 7c 74 9c d4 83 3f 3c c7 55 e7 ae 12 a6 bf
       0.0096828673408941 -0.04311129163660474
000450 7e a6 80 8c 08 23 92 bf 2b b3 50 bb 59 96 c5 bf
       -0.01771176679191066 -0.16865083357097296
000460 d6 b7 1b 61 35 0a 83 3f 97 f6 c5 c2 49 1e ce 3f
       0.0092968149433225 0.23529932032026998
000470 6f c6 ed 2d 8d a6 d3 bf 35 b8 b9 ba 5d 7d c0 3f
       -0.30704049573169007 0.12882587068037457
000480 55 a1 8e 44 6f ca b1 bf c5 cd 06 52 76 59 b7 3f
       -0.06949515746840025 0.09120883467294678
000490 0e 97 a5 d4 6e eb cb 3f e3 8a 1d 0d e3 44 62 bf
       0.21812234290262505 -0.002230113467633786
0004a0 c0 f9 59 92 a7 dd 67 bf f7 05 cf 10 0b 21 a1 3f
       -0.002913310326049884 0.03345522480186596
0004b0 34 d7 ed f6 af 16 af 3f 20 93 8f e6 df 27 c9 3f
       0.060719965832431916 0.19652937658170178
0004c0 bd 95 30 3a 85 84 be bf 9b c6 e2 19 d3 60 ce bf
       -0.11920960112237018 -0.23732985271413018
0004d0 d0 a6 c7 c5 39 62 55 3f 98 9c 6b e9 ed 2a c6 bf
       0.0013051571069077512 -0.173185099577698
0004e0 a4 f4 bc 9d 8f aa ca bf ee 06 f0 2d 4e 9e d3 3f
       -0.20833010866218615 0.30653719411939917
0004f0 36 45 c5 66 9b 9c 93 3f 8e 76 7c 36 51 c6 80 3f
       0.019152095935458045 0.008190760112081887
000500 4b 98 8b a4 9c 6b 7d 3f f4 7a 50 7b e4 dd bb 3f
       0.007182704816591177 0.10885456095318685
000510 d3 10 02 77 29 85 71 3f 19 62 1c ad b7 55 d7 bf
       0.004277383777779603 -0.36460678010328845
000520 02 8d ea 1f 49 b4 99 bf 36 31 0d 51 ae 30 4b 3f
       -0.02510179765034782 0.0008297778277693072
000530 90 25 f7 0c 63 29 8c bf d0 f0 7b b0 42 36 a6 bf
       -0.013750814278767703 -0.04338272480342342
000540 09 56 ce 4e d2 8d 8c bf 48 11 56 0e cc a1 b9 bf
       -0.013942378072708388 -0.10012507772450363
000550 d7 c7 f6 b9 02 33 cc 3f 0c 7a 83 ab 30 78 c0 bf
       0.2203067214991836 -0.12866791128813337
000560 2f ca 2d c0 d5 44 a2 3f 26 b5 c2 4b bc e1 d5 3f
       0.03568141909535815 0.34190280340665635
000570 5a b7 04 73 d6 5f a1 bf 19 6e 1b 17 f5 0b c3 bf
       -0.033934308567366414 -0.14880241039541955
000580 4f 4b 84 e3 16 1f 81 3f e8 7b c7 37 64 1f bd bf
       0.00836007959199994 -0.11376024591253009
000590 a7 24 36 a8 f3 b1 c8 bf 0b f5 a4 8a 1d 99 a6 3f
       -0.19293065751506797 0.044136927770958755
0005a0 fd df f5 eb d7 36 c0 3f 0d e7 95 5f 97 58 cd 3f
       0.12667368909364987 0.2292660919882156
0005b0 cc e0 60 a1 16 4b d5 3f e2 a4 30 37 fd d8 ca 3f
       0.33270803222286527 0.2097469825251102
0005c0 98 38 9b 2b bb 57 b6 3f 9a 1f 08 84 14 85 b4 bf
       0.08727617086990092 -0.0801556417792412
0005d0 1d 00 22 28 f5 2d 50 bf b7 88 97 2a da 2b cf bf
       -0.0009875196560926787 -0.24352576331790995
0005e0 9e 5d ee f2 72 74 bf bf 59 73 3a fa d1 a7 b8 bf
       -0.12287062102256249 -0.09631073340501696
0005f0 b6 3d c9 ed 66 64 be bf d3 c0 1b d9 bb ad bf 3f
       -0.11871951394390731 0.12374471712587658
000600 8a d4 ef 77 f4 bb d2 bf e1 ba 3f e1 26 2d bb bf
       -0.29272186005193446 -0.10615771292917088
000610 9d f2 97 89 de ed ca bf fb 89 6b ab e4 ee b7 bf
       -0.2103841945498929 -0.09348897156772999
000620 5a 66 d2 ca d4 03 b1 bf 7d 15 07 27 cd 07 a3 3f
       -0.06646470977502741 0.03716889478122718
000630 f3 9c b0 83 63 f2 c9 bf 8e b7 f0 97 7c 87 c1 bf
       -0.2027096169488015 -0.13694722575149537

en2.weight f8 [100, 200]
000000 54 b8 64 60 63 9d 57 3f 75 20 3b e6 a2 2e d0 bf
       0.0014413328622811155 -0.2528464554166086
000010 e3 ed 59 33 76 fa ca bf f7 73 5c 9b 17 c4 b0 3f
       -0.210768485139723 0.0654921297359151
000020 56 a6 6d 8a 46 2a d1 bf c9 32 d9 a7 f3 f3 c7 3f
       -0.26820529478445587 0.18713231750225237
000030 e1 a2 70 8b 17 2a b6 3f 5c 80 d6 25 1c e3 da bf
       0.08657977251335637 -0.42011169142825167
000040 af 8b bb c4 b9 68 bd bf 90 d5 3e 17 af 52 d8 bf
       -0.11487923672716137 -0.3800466277128516
000050 66 da 61 aa 78 bd d0 bf 64 5b ea 91 99 81 93 3f
       -0.26156441344156744 0.019049071818325727
000060 28 c8 bd 2a 8a a2 c5 3f 55 af cd 49 7d c1 9e 3f
       0.16902281844119327 0.030034978513341432
000070 0f 9e 9c 1f 1e c9 c8 bf c2 e8 b1 d1 51 cc dc bf
       -0.19363762420219685 -0.44997067907355526
000080 ea 65 58 99 02 99 b8 3f 7b 90 fb fd 5c ff b9 3f
       0.09608474963933814 0.10155278397320615
000090 a5 f9 dd 3e 2e 26 be bf 90 a8 97 ab b9 b1 d1 3f
       -0.11777009043541982 0.27647248990127427
0000a0 70 78 c1 f5 1b dc d4 bf 4d 96 78 ea 13 ce c1 bf
       -0.32593440055450795 -0.13910149525433937
0000b0 9d cd 2d 67 90 67 b0 3f 17 97 b5 a4 b1 72 d3 3f
       0.0640802623654992 0.3038753612985245
0000c0 57 52 5e 6a 02 c3 bf 3f 38 3d 96 08 7f 0e d7 bf
       0.12406935784231031 -0.3602597793441933
0000d0 95 d8 45 f4 0c 05 a9 3f ee 62 9f 60 08 b5 d8 3f
       0.04886665803762572 0.3860493606166945
0000e0 27 12 c8 ed 3b 51 82 3f 8d 83 fe 89 14 c5 d2 3f
       0.008944004243866278 0.2932788226699408
0000f0 8e 4b ac a0 67 29 d9 bf 4d fd 8a 5f d2 5d d0 bf
       -0.39315214815831545 -0.2557264264141466
000100 63 f3 d1 1a 33 d2 c9 3f e2 0a e3 6b 8f 4e 68 3f
       0.2017272835691087 0.0029671479415765848
000110 d9 4b 06 70 35 0f b8 3f 8d 2e cd 24 f7 de c1 3f
       0.09398206696486912 0.13961686417529898
000120 c9 50 0d 29 d1 28 cd 3f 76 a0 a9 f8 1f 3a ba bf
       0.22780813698284977 -0.10244941540588734
000130 68 84 99 04 81 56 c7 bf fe b8 a1 77 42 be e4 bf
       -0.18232739185899338 -0.6482250534589011
000140 9b 75 f7 b8 cb 39 c4 bf 7e df 45 e3 3c 9c a2 3f
       -0.1580137875707067 0.036348250144270886
000150 5a 08 99 61 7e 9c b0 bf a2 65 67 5e 30 a3 bf bf
       -0.0648879040027465 -0.12358381562025625
000160 dc f6 6f 07 94 93 d6 bf 83 55 7f f0 ff f8 d0 3f
       -0.3527574608450388 0.2651977394683273
000170 99 52 07 fa 77 01 c2 bf e0 c8 5a 72 e5 c7 d8 3f
       -0.1406698199122232 0.38720070044941046
000180 6d 31 55 b2 7d 97 b0 3f a8 85 cc e1 bf 00 94 bf
       0.06481156925037164 -0.01953410926501467
000190 5a c8 c1 34 16 54 c8 bf 23 1c 7c 9e 52 61 cc bf
       -0.1900661237337456 -0.22172005404010617
0001a0 33 25 f2 19 29 ce d5 bf 05 78 eb 13 c1 e1 b8 3f
       -0.34070804151322703 0.09719473587344403
0001b0 82 80 47 0a ad c2 b0 bf 01 9d 8f f2 02 2e e0 bf
       -0.06547051907500825 -0.5056166398543668
0001c0 98 44 f9 95 38 5f d2 3f e3 4b 51 62 20 a5 c8 bf
       0.2870618309580748 -0.19253926087057413
0001d0 05 61 4c fc 53 df bc 3f 43 f7 eb ca ae b7 d6 bf
       0.11278271588924234 -0.35496110741211256
0001e0 30 ee 52 3d 3b d5 c8 bf 60 97 0d 1d da 23 35 3f
       -0.19400730604489658 0.0003225715163835876
0001f0 46 85 e3 ff 31 7f c1 bf 14 9a 52 2e c2 eb c8 bf
       -0.1366941928345488 -0.194694779032219
000200 9a b8 42 a3 f6 c9 d0 bf 93 2d 29 f4 bc b4 a2 bf
       -0.2623268694250186 -0.03653517227629801
000210 57 c3 42 1f 56 ac d0 bf ba 86 1c 92 a4 e4 d0 bf
       -0.2605185799866851 -0.26395525234884654
000220 55 20 69 91 81 8d 9b 3f d9 6f 2c 15 6a 51 aa 3f
       0.026906990528260916 0.05140239246813367
000230 b2 7e 41 f9 c1 86 ac 3f 2e 13 77 03 5b 6d c5 bf
       0.055715619732607094 -0.167399765674554
000240 b6 30 69 65 01 35 bb bf c4 06 b9 ce a1 f8 d1 bf
       -0.10627754903652228 -0.28080029666680795
000250 f5 14 e7 26 fa 10 d9 3f 51 55 2c 04 5e 37 c1 3f
       0.39166120337570415 0.13450217441337967
000260 81 4e a7 fd 29 d0 d1 3f c9 25 46 0b 55 b2 d3 bf
       0.2783303238950126 -0.30775953389146743
000270 b0 9c 03 b7 ac ec d4 bf 12 5a 0e 6a 0e 7e d8 bf
       -0.3269454753157772 -0.382693866320012
000280 d9 13 f9 07 9e 7a 8b bf 54 a4 16 c3 d0 9c a0 bf
       -0.013417467706981089 -0.032446407141215744
000290 91 af 26 bc 2d 6d d3 bf e7 4f d0 52 67 ec ce bf
       -0.30353873609669174 -0.24158946555746683
0002a0 c5 d6 ab 55 55 2b d7 bf e6 06 3a c3 a5 9d ca bf
       -0.3620198570855389 -0.2079360202079023
0002b0 ec f2 9f 02 17 74 b9 3f e8 2e 9e ab fc 3d 96 bf
       0.09942764104921381 -0.021720836615300693
0002c0 4e 7a 72 80 02 a3 a6 bf 8d 22 b4 c2 e5 16 c5 bf
       -0.044212415866458174 -0.16476127631201046
0002d0 79 fc d6 34 d4 70 e5 bf 3a 10 26 70 a1 13 c2 3f
       -0.6700230628993175 0.14122407890329375
0002e0 74 80 6a a1 f4 b4 cd bf c7 61 c7 df 4a eb 44 bf
       -0.23208482629434324 -0.0006384006115310253
0002f0 92 38 90 2b 2d f9 c0 bf 0e 0f da 89 d4 cc 73 3f
       -0.13260426165692657 0.004834013203097743
000300 3f 42 2a e1 09 71 b0 bf c2 11 e9 ea 5d af 95 3f
       -0.06422483203119443 0.021176784003061895
000310 44 23 f8 f4 55 28 c4 bf 21 73 44 a0 c3 77 df bf
       -0.15748094998732587 -0.4916848244773054
000320 4b 2d fb 4d 8b 57 83 bf ad 90 e8 00 b1 d0 d4 bf
       -0.009444320981308115 -0.325237513434568
000330 d9 73 db 5c b0 eb d4 3f cd 64 62 00 25 da ce bf
       0.3268853098687124 -0.24103224295394057
000340 45 dc b3 c0 d3 84 a6 3f 70 a3 97 81 b7 19 8d 3f
       0.04398214080168165 0.014209207193702972
000350 8a 06 d1 35 e8 ff ca bf c7 c6 11 f7 e6 d0 b4 bf
       -0.21093466403731426 -0.08131259471863493
000360 94 b4 04 ed f3 87 b9 3f 1e 76 d3 bb e0 64 d0 3f
       0.09973072563725999 0.2561570963133323
000370 13 4e 2c 32 02 74 c5 3f 3b 06 dc ad f5 29 a7 3f
       0.16760280084473375 0.045242001984672396
000380 2b 43 d4 a8 f6 74 e8 bf f4 7e 04 e0 85 0d b9 bf
       -0.7642777726597151 -0.09786259383372081
000390 25 49 6e ee b2 fe cc bf 5f 5b f4 d0 65 a7 7c bf
       -0.22652279512528498 -0.0069955804058484386
0003a0 cf b5 b5 6f 5b 96 e5 bf b2 f6 f9 f1 16 69 aa bf
       -0.6746041471321237 -0.05158302024663665
0003b0 77 da 5e 61 6e 3c c1 bf 95 1b 6d 70 fc f0 d7 3f
       -0.13465671305103274 0.3740836236869936
0003c0 3f 52 fa 4d 30 a7 ac 3f 84 aa 5f d1 74 33 c3 bf
       0.055963048476006076 -0.15000782225918752
0003d0 47 76 0d 9f ac 66 b7 bf d4 72 70 e2 49 fa 8a 3f
       -0.09141043551559234 0.013172700140836303
0003e0 d0 27 85 8a a9 43 c3 bf 24 af 08 b7 ad 6b ba bf
       -0.1505023886077752 -0.10320554464913961
0003f0 39 ee a0 5d b1 38 df 3f 8b d2 18 8f 8f d6 c1 3f
       0.4878352560369624 0.1393603752818716
000400 44 06 f0 5d 13 c0 d8 3f 62 aa 46 d0 95 6b 91 3f
       0.3867233674392063 0.017011967503700716
000410 eb d1 b3 a9 dc 69 c3 bf fb e5 92 fc 87 d5 ec bf
       -0.1516681507706744 -0.9010658200342613
000420 8d a5 bb 16 b4 c9 bf bf 79 fc 09 09 c2 aa aa bf
       -0.1241715007305599 -0.05208402977313482
000430 92 fa 47 55 af da 98 3f 42 5c 09 f7 c1 be c4 3f
       0.024271716671132433 0.1620714622719977
000440 dd 82 b4 d8 35 2b aa 3f 3c 0c 64 1a 3b 6f cb 3f
       0.051110918715726796 0.21433199680913784
000450 37 b9 33 b3 91 cb b5 bf 65 c6 ca 0b 1e ea c4 3f
       -0.08513746857690739 0.16339469505105622
000460 3b b6 02 18 10 e5 d5 3f de ef 1d 1b cf 01 db 3f
       0.342105887840123 0.42198541305674364
000470 da 73 16 fe 3b ba e0 bf 13 4b b3 d1 a0 2a c0 bf
       -0.5227336847925657 -0.1263009094169197
000480 60 0a 8e fc 11 98 c3 3f 58 5e 86 d0 d2 34 c9 bf
       0.15307831603793698 -0.19692454511526836
000490 98 8f 1c d7 7a 37 d8 bf bb a5 74 29 c1 51 bf 3f
       -0.37838622099865793 0.12234122526265072
0004a0 b3 69 1e ae 83 3c bc 3f aa 30 82 4f ed bc d1 bf
       0.11029837609240793 -0.27715618862635927
0004b0 df 75 2e 2d 28 e2 cd bf 16 2f 84 cf b2 0e cd bf
       -0.233464262067101 -0.22701106197961768
0004c0 15 a0 70 e7 3d d5 d5 bf 13 a9 a8 c2 22 0b 90 3f
       -0.34114024735981846 0.01566747964003763
0004d0 4d 15 02 c3 32 53 c6 bf 0f 4b c4 ea bc dd bf 3f
       -0.1744140102565929 0.12447720271692851
0004e0 c3 de 85 07 6b 28 d4 3f b8 68 ee 96 20 50 e1 bf
       0.3149669240442387 -0.5410311649204891
0004f0 f2 e9 25 7c fa a9 b5 bf dc e7 68 31 88 a0 c5 3f
       -0.0846249154182386 0.16896154797160434
000500 c2 af 45 00 f4 aa 84 bf 6b db 01 4a a4 ee bd bf
       -0.010091692217166218 -0.11692263418977482
000510 2f 5b b2 76 50 3f bd bf 15 90 2f 38 a3 a8 db 3f
       -0.11424734971874949 0.43216782080549027
000520 2a b8 d4 7b eb 13 94 bf b8 43 51 25 65 f5 b9 3f
       -0.01960723822883651 0.10140068207807829
000530 a8 44 ea c0 ab fc c5 bf 49 47 d2 88 30 b2 c0 3f
       -0.1717734043091117 0.1304379146645778
000540 7e f9 8d 39 8e f0 9b 3f 48 05 3d 6a 5a 6f bf 3f
       0.02728483415875748 0.12279286473951345
000550 0d df 97 49 89 63 c5 bf 9c 0e dc 32 11 9a 89 bf
       -0.1671001061765697 -0.012500891079532388
000560 17 91 12 8c 17 f6 80 3f 5e d5 90 37 6a 1a f6 bf
       0.008281883203672664 -1.3814489527261098
000570 96 d3 17 62 13 df 8d 3f ee 30 e1 de 8f 71 cd 3f
       0.014585639411032674 0.23002813704295683
000580 39 d5 3d 53 2a bf 7c bf 95 01 02 83 3f 63 b7 3f
       -0.007018246967949887 0.09135815571244728
000590 5b e0 9e d9 32 44 d6 3f 39 af e8 a0 1a 77 d7 bf
       0.3479125142289427 -0.3666445323349197
0005a0 1d 93 4a 33 11 b8 8a bf a3 6f b2 3d 1d d4 e0 bf
       -0.013046392801081158 -0.5258928494472354
0005b0 65 0f e3 98 76 fe f2 bf 5e 32 f7 77 12 8d bb bf
       -1.1871248218676211 -0.10762134007308918
0005c0 15 e0 40 f5 aa d5 e0 bf 3c 1a 9b 2c 78 e6 c0 3f
       -0.5260824956994862 0.1320333688547225
0005d0 1d ce 82 f7 1e 01 a3 3f 32 37 67 9a ff ed a0 3f
       0.03711792727827066 0.0330657840710117
0005e0 e1 89 0f ca 41 38 c0 3f 6c fa 2a 29 86 d0 83 bf
       0.12671682707066537 -0.009675071841568093
0005f0 7a 3f 5c 06 10 78 8c 3f 1a 42 40 26 44 ac ad 3f
       0.013900876230337412 0.05795491187030084
000600 99 2e 10 db aa 0c ca 3f 1e 09 eb 03 4c 9c 84 bf
       0.20351157852598048 -0.010063737744876063
000610 6e 82 d2 c1 cc ba e1 3f f5 b3 9e 65 b9 19 be 3f
       0.5540527139274454 0.11758002024608045
000620 48 2b c1 a9 c2 d8 d2 3f d1 2b 96 b3 4e 94 c0 3f
       0.2944800050506058 0.12952598351361513
000630 6a 4e 76 2b db a3 d6 3f 02 a6 8a d5 3f 07 8d bf
       0.3537509846148398 -0.014173983291885687
000640 37 f9 5d 43 ed 1d 97 bf 1d 0f 82 79 c5 e0 c1 3f
       -0.022575099217186447 0.13967197831163328
000650 4a 60 63 a6 49 e8 c8 3f 35 36 af f2 e3 66 d3 bf
       0.19458885788367503 -0.30315493297243573
000660 3f 07 e5 ce 55 f3 d0 bf 6f 4f be f3 4a c5 74 3f
       -0.2648520012336241 0.005070965558747405
000670 fa f6 7e 31 d6 89 e1 bf df 44 45 ad 62 a1 c6 bf
       -0.5480757681577579 -0.1768000932739033
000680 14 03 35 1d c3 2e e1 3f fb 67 49 6e 49 c4 bd bf
       0.5369582720232722 -0.11627634947345193
000690 17 f2 d3 3c 6c b8 c2 bf 4e c2 72 57 2b 12 c2 3f
       -0.14625313730347564 0.1411794831269781
0006a0 0b f7 36 17 e5 7e ca bf a7 a4 02 89 d6 3f c7 3f
       -0.2069975245812475 0.18163568201024313
0006b0 7f 07 13 8a f4 40 d0 bf d4 de af 55 15 fb da 3f
       -0.2539645527250442 0.42157491081114284
0006c0 c8 de 75 33 20 71 f5 bf 13 ff 7e b1 9a 65 e4 bf
       -1.340118599908168 -0.637402865097075
0006d0 a8 a0 db 7d 22 69 a0 bf 2a 47 64 c0 12 b4 b6 bf
       -0.03205211435653271 -0.08868519970954183
0006e0 a2 c1 66 07 4a 30 d2 bf 7d 80 7d e5 31 8f c0 3f
       -0.28419733736793706 0.12936996179178442
0006f0 30 47 e2 87 8c e7 d2 bf 90 77 ce 9a a6 5c a9 bf
       -0.29538262624656664 -0.04953499450424126
000700 95 b1 16 31 e4 48 af 3f b4 1c e2 2e 6d 2a a0 bf
       0.061102992050425055 -0.03157368848138145
000710 ab ac 22 ff 03 59 c5 bf 5a be ab cb b2 25 e9 bf
       -0.16677904088769444 -0.7858518579432243
000720 17 dc d7 f9 6a 7c d4 3f dd 32 fa 50 00 92 c6 3f
       0.32009386442899895 0.17633060411426174
000730 61 da 5e 5d 4a a3 d1 3f dc 95 4d bd 66 9d af bf
       0.2755914604016763 -0.06174775181606737
000740 05 57 f7 42 dd f4 82 bf 59 ac a0 0f e7 04 c3 3f
       -0.009256104093690274 0.14858711493556845
000750 f8 4d f7 97 d7 6a a7 bf e2 ea ab 22 e7 96 d0 bf
       -0.045737016010800546 -0.25921038041967226
000760 9c 32 da 3a 1e 5a ca bf 9f 7e 4f b4 48 e6 c1 bf
       -0.20587518571519048 -0.13984021000122923
000770 40 d8 9c 69 f9 74 a4 3f 58 bb b5 7a 3d 6c e4 3f
       0.03995494283883305 0.6382129093816316
000780 51 7a e8 ef 16 ee c5 bf df 64 2c 9c 45 56 cc 3f
       -0.17132841791404244 0.2213828098836421
000790 e1 40 12 d9 46 48 8d bf fa 9a 6d 5b 0c ff e1 bf
       -0.014298013209810669 -0.5623838220315911
0007a0 7e 36 7b 57 00 13 b9 bf 26 bb 86 a6 c3 55 b0 3f
       -0.09794618736051494 0.06380865874846772
0007b0 80 e0 20 34 0b 63 d0 3f a0 96 70 31 75 60 b4 3f
       0.25604515162149966 0.0795968290045388
0007c0 e1 23 5a 58 5b e5 c3 bf 05 c6 be 84 fb fd 6b bf
       -0.15543691457813139 -0.003417006728306362
0007d0 69 eb 20 00 0a d6 b2 3f c0 3d 28 17 f1 8c d0 bf
       0.07357847693576293 -0.25860240231937937
0007e0 60 a4 35 5a e8 f9 c0 bf a0 b1 2a 5a 95 fa e4 3f
       -0.13262657551539103 0.6555887948102743
0007f0 d9 e6 bd 17 e8 0e a7 3f 71 2f df 22 81 b0 c8 bf
       0.045035603426141164 -0.19288648798680755

en2.bias f8 [100]
000000 e5 6a 9a e6 47 f1 c1 bf 74 47 11 e3 98 96 85 bf
       -0.14017580757066309 -0.010541147641706529
000010 7a 04 14 fa f2 c1 89 bf 91 2f 5e 12 af 12 b9 bf
       -0.012576959854870607 -0.09794134329257377
000020 6e 6f 88 e8 e5 dc a9 3f 0f 79 14 20 59 28 ab bf
       0.050513443599100025 -0.053042206922542794
000030 d0 2d f7 78 7c 04 b2 bf d1 97 65 13 96 ab 70 bf
       -0.07038095429668734 -0.004069887383911523
000040 0c 7d 54 c4 ac 76 a7 3f e0 88 cb ab 91 d6 a1 3f
       0.04582729240996217 0.0348401567660106
000050 cb 82 aa 69 dd 4d bb 3f 5d ba a5 d6 2f a0 c4 bf
       0.10665687398660421 -0.1611385152895818
000060 92 4e c2 32 ec 94 9b 3f 92 73 b8 0a 3c 36 bf 3f
       0.02693528232391757 0.12192130338412557
000070 2f 6e 3e d3 97 7d a4 bf 61 58 a6 5b 1b cd a1 3f
       -0.04002069905910976 0.03476796621105006
000080 dc e2 ec 75 c6 5a b4 bf cc d8 eb f9 09 99 8e bf
       -0.07951012019192255 -0.014940336169712153
000090 48 1b da e0 15 40 97 bf f3 78 66 46 7f 08 a5 3f
       -0.022705404137492807 0.041080453246864844
0000a0 dd 8a ce 07 c8 07 a2 bf 38 48 5f a1 2c 93 d4 bf
       -0.03521561713502817 -0.32148280867579926
0000b0 1e 9d 80 fc 86 02 9c 3f ab ad f0 ae 0b df ac 3f
       0.027353390847705154 0.05638920317172887
0000c0 54 60 8e e8 af a8 b2 bf 5a 80 21 0b 23 f5 ba bf
       -0.0728864615215355 -0.10530299207448604
0000d0 b6 23 6d 4f 6d 7b af bf 0b 11 ae 15 cb 49 a7 3f
       -0.06148854822692533 0.045484873196104024
0000e0 c0 9b 6d d5 d1 b9 c0 bf 63 f3 ac 05 b1 86 b0 bf
       -0.13067076607987183 -0.06455522907795123
0000f0 14 b9 ff 51 37 05 c5 bf 34 95 39 58 74 65 98 3f
       -0.16422168258527192 0.02382451809389359
000100 92 df 13 e2 78 34 b6 bf 6b d8 7f 1a 98 f3 a9 bf
       -0.0867381622264232 -0.050686600909032396
000110 4d 42 bf 2c 71 f3 a9 bf 80 ab 0f 0f 4d 42 78 3f
       -0.05068544074277224 0.005922604571405254
000120 42 3a 13 bd 76 a8 b0 bf 3e 7b c3 3c e7 a7 b8 3f
       -0.06507055393306252 0.09631200059400855
000130 6b d5 df 1e 87 ea ae 3f 40 8e 4c d4 c5 81 b9 3f
       0.06038305522808226 0.09963642533380668
000140 3e d9 1c 60 3f 10 a5 3f 29 73 46 0e 3d fe a6 3f
       0.041139584047800146 0.044908435814454535
000150 d1 48 ba e2 ad c5 9a 3f 1c 75 77 5c ae 90 c1 bf
       0.026144711459502205 -0.13722781672451212
000160 18 a4 2d a1 48 0d c1 bf 61 d6 5f 0a c6 92 a0 3f
       -0.1332178866389604 0.032369793669130294
000170 5e f3 62 3c 93 f7 71 bf a0 a6 36 7a 31 e5 a1 bf
       -0.004386496677565825 -0.03495173088897485
000180 8e b1 73 9e 0b 05 ac bf d3 72 01 21 1c c2 a1 bf
       -0.05472599324443471 -0.03468406584645369
000190 a9 5b 56 68 38 7a a5 3f 52 85 91 d5 28 03 ad bf
       0.041948092209330774 -0.056664730139128
0001a0 71 6d a5 45 33 82 95 bf 26 85 d5 eb 35 79 c9 bf
       -0.0210044871576946 -0.19901155486426453
0001b0 82 e3 9e b2 ba 33 a4 bf d4 b1 3b 08 0f bf b5 bf
       -0.03945716314723936 -0.08494657469754624
0001c0 75 48 e0 9c 22 2b 70 3f e2 9c 10 e4 f7 11 9f bf
       0.003947386938323407 -0.030341981215454512
0001d0 a0 79 e4 39 e3 c0 b8 3f cc 05 b0 a3 71 62 b7 bf
       0.09669323123350759 -0.0913458847644712
0001e0 e9 d8 6a fe 28 44 b4 bf fa be 5d 1e 21 7a a2 bf
       -0.07916504107820156 -0.036088023144541695
0001f0 94 86 04 41 3b a6 7d 3f 8f 8e bf c6 c3 40 bc 3f
       0.007238608799782793 0.1103632316804186
000200 2d cf f3 72 60 e3 a1 bf 14 3d ee 26 44 79 9f bf
       -0.03493787196376128 -0.030736031414162104
000210 72 f3 60 11 dc 2a c1 bf c9 8c 61 74 c1 9d b3 3f
       -0.13412047241754582 0.07662591067632997
000220 3c 7d cb b8 d3 89 c0 bf 8a 6c 11 ff 06 ed 7c bf
       -0.12920614741504177 -0.007061984376458894
000230 75 60 34 ac f4 2b bf bf 29 e4 65 ab 1d 3e aa bf
       -0.12176446155751981 -0.05125515668164155
000240 f1 0d 00 7e ef d2 b0 bf 1c 30 39 f3 11 34 ad bf
       -0.06571862054993695 -0.05703788847003485
000250 d8 07 98 25 f0 c5 d3 bf 6c a6 44 fd 9c 4b c1 bf
       -0.3089561812522539 -0.1351200329457244
000260 15 88 9e 15 1d c4 a6 bf 63 5a 69 fd 9e 6e a3 3f
       -0.04446497811228781 0.03795334666636021
000270 d6 79 7a 48 cd d3 ae 3f 86 d8 cd a1 bd cd ad 3f
       0.060209670159782 0.05821030235431217
000280 8c 08 ba 33 ef 53 c0 bf 77 40 2a 09 c1 5e c1 bf
       -0.12756147409169605 -0.1357041640044405
000290 e2 44 06 37 d6 63 c9 bf 13 d8 a4 5a 5c 5d c4 3f
       -0.19835927664511305 0.1590991442296291
0002a0 31 d6 7c 73 bd 68 bb bf 6d e4 66 a6 02 36 a3 bf
       -0.10706695622942487 -0.037521441281065694
0002b0 d5 a5 b6 35 5a d2 9c bf 8e 2b ff 7a 12 5d 5b bf
       -0.028146180656824022 -0.0016701393578723886
0002c0 87 d8 7b 69 c0 cd be 3f 17 ee 63 4f 28 3a c8 bf
       0.12032702040946407 -0.1892748248718454
0002d0 d5 a6 0d 40 f4 e1 c3 3f 09 a1 d2 2b 71 22 c5 bf
       0.15533307197193005 -0.1651135887125366
0002e0 cf e6 d7 26 9f 63 be 3f 79 0e 9e 84 b0 ce a6 bf
       0.1187076062996326 -0.044545665920876006
0002f0 ba ce b5 24 2b ed b5 bf b6 72 af 93 45 9b b3 bf
       -0.085650154554794 -0.07658800941085073
000300 92 88 ac f2 08 99 b4 bf 9a 44 df 59 ad d1 a4 bf
       -0.08046012806565475 -0.040662209721298484
000310 b1 a3 eb 75 c8 11 9b bf 4d 7b 20 2e f1 30 97 3f
       -0.026435024449628922 0.02264763683353559
